AutogluonModels/ag-20230915_030535/models/NeuralNetFastAI_BAG_L1/S1F8model-internals.pkl (torch, 136800 bytes, 17 tensors)

weight f4 [22, 9]
-0.00494648 -0.012220805 0.0050330926 -0.000747613 0.012744781 -0.0021474664 -0.0049179886 -0.009528086
-0.011265236 -0.0021527198 0.003241534 -0.007300624 0.0156552 0.0021241265 0.010750204 0.014888819
-0.0029929036 -0.014410875 -0.006893837 0.016707618 -0.010292924 -0.007486978 -0.00062475953 0.0052962997
0.010113258 -0.016207535 -0.012392389 -0.018028772 0.014056155 0.0012526284 -0.0147694675 0.0003582801
0.0057802238 -0.00030497194 0.010630995 -0.0008435413 -0.0014662329 0.0071629826 0.0065318793 0.0033036263
0.017682802 0.003352996 0.001529584 -0.011410351 0.008126298 0.011217996 0.00287864 -0.007945441
-0.0012538078 -0.001858261 0.016024865 -0.0058838134 0.0015160595 0.015003165 0.0010620655 0.005425421
0.015939295 0.001238795 0.0022401034 -0.0056573 0.009723221 0.004654668 -0.0073932814 0.013355004
-0.0049945507 -0.007453638 -0.008832831 -0.0049237143 0.0016896285 -0.0090652825 -0.0079259 -0.0008476236
0.01017881 -0.012267608 0.008042468 0.0018005269 0.00322882 -0.018798951 -0.012438657 0.0012589329
0.0008610073 -0.0036930982 -0.014573627 0.0031084772 -0.012758481 -0.0032508567 -0.002580679 -0.0109758815
0.008996764 -0.003117474 -0.0099523105 0.0034975726 -0.009078226 -0.009975873 -0.0071059116 0.0049576284
-0.0010273082 -0.010586545 -0.014890099 -0.008710501 0.012200221 -0.01970984 0.0027843881 0.009934396
-0.005586724 -0.003825858 -0.003190162 -0.0045738867 0.010505399 -0.0032775898 -0.007315 -0.0050194077
0.009433673 -0.0055328202 0.01127358 0.007733656 0.0039835996 0.0037010773 -0.008153598 -0.007535171
0.014044508 -0.011372889 -0.010575796 0.0002793341 -0.0024304672 -0.0013238995 0.0054654 0.017544217
-0.010775402 0.01210447 -0.00684587 -0.007378346 -0.015192916 -0.002955153 -0.0043905177 0.0006924257
0.021000601 -0.012146571 0.002172648 -0.0041038143 -0.0099006435 -0.018158736 0.0069238083 -0.01564371
0.0041126832 0.01165193 0.0032648016 0.00031989528 0.0030160195 0.013201867 0.01365243 -0.0016598281
-0.0019566934 0.0031320332 0.0037247373 0.0016744023 0.0054279845 -0.017450511 0.011491459 0.007599289
-0.001491123 0.007809281 -0.011281864 0.002802397 0.00045107052 0.009159066 -0.009516684 -0.0018244396
-0.00039878808 -0.0036496834 -0.017617444 -0.00036668673 -0.018396854 -0.020598674 7.581402e-05 -0.009533367
0.0041569285 0.006026816 0.0043849316 -0.008066089 -0.0016649412 0.018808717 -0.0035869472 0.0030129245
-0.00539064 -0.0019108386 -0.0015319071 0.011077852 -0.01178188 0.017044708 -0.0026976469 0.012081368
-2.6275753e-05 -0.008381584 -0.010862756 0.0027990616 0.0054409215 0.019712664
00000000: 1516 a2bb c539 48bc a4ec a43b 76fb 43ba
00000010: 7ccf 503c 82bc 0cbb 1427 a1bb b01b 1cbc
00000020: d391 38bc a514 0dbb eb6f 543b 133a efbb
00000030: 563f 803c ee34 0b3b a021 303c 3cf0 733c
00000040: 9724 44bb 971b 6cbc b2e5 e1bb 6ade 883c
00000050: a7a3 28bc 5355 f5bb e7c6 23ba 958c ad3b
00000060: 14b2 253c aac5 84bc 7209 4bbc 13b1 93bc
00000070: ca4b 663c 3c2f a43a a3fb 71bc 8ad7 bb39
00000080: 0868 bd3b a4e4 9fb9 a02d 2e3c 1921 5dba
00000090: 9d2e c0ba 74b7 ea3b 6009 d63b a781 583b
000000a0: 86db 903c f0bd 5b3b 537c c83a 7bf2 3abc
000000b0: 2a24 053c afcb 373c 91a7 3c3b 982d 02bc
000000c0: cf56 a4ba e490 f3ba 9446 833c 01cd c0bb
000000d0: 84b6 c63a d6cf 753c 0135 8b3a bbc7 b13b
000000e0: 2093 823c 105f a23a b3ce 123b df60 b9bb
000000f0: 254e 1f3c 2f86 983b 5743 f2bb f2ce 5a3c
00000100: 54a9 a3bb a63d f4bb 94b7 10bc 1c57 a1bb
00000110: 8676 dd3a 8d86 14bc a2db 01bc 0f33 5eba
00000120: 06c5 263c 14fe 48bc 8ec4 033c a8ff eb3a
00000130: 9c9a 533b 4200 9abc 82cb 4bbc c702 a53a
00000140: 39b5 613a e807 72bb 39c6 6ebc 98b7 4b3b
00000150: f308 51bc 530c 55bb 9c20 29bb 2fd4 33bc
00000160: 2a67 133c 894e 4cbb 040f 23bc 8837 653b
00000170: d7bc 14bc d871 23bc b5d8 e8bb 9a73 a23b
00000180: bea6 86ba 3073 2dbc 9af5 73bc 7db6 0ebc
00000190: 70e3 473c 8876 a1bc 487a 363b e0c3 223c
000001a0: d610 b7bb 3fbb 7abb 0912 51bb 8be0 95bb
000001b0: d61e 2c3c d5cc 56bb abb2 efbb d879 a4bb
000001c0: b18f 1a3c a94c b5bb d2b4 383c 9c6a fd3b
000001d0: db88 823b c68d 723b ab96 05bc 99e9 f6bb
000001e0: f01a 663c 5b55 3abc 1a46 2dbc 9773 9239
000001f0: 7948 1fbb b286 adba 1917 b33b e4b8 8f3c
00000200: 508b 30bc d451 463c 5253 e0bb 0dc6 f1bb
00000210: b5eb 78bc 3dab 41bb 55de 8fbb e783 353a
00000220: 7409 ac3c 6902 47bc fc62 0e3b 4a79 86bb
00000230: 4f36 22bc a1c1 94bc 1de1 e23b 3d27 80bc
00000240: b0c3 863b bde7 3e3c 48f6 553b 9eb7 a739
00000250: 69a8 453b a54c 583c 71ae 5f3c 978e d9ba
00000260: de3b 00bb cc42 4d3b b91a 743b 9e77 db3a
00000270: 3cdd b13b 60f4 8ebc ac46 3c3c 7503 f93b
00000280: c971 c3ba ffe4 ff3b 91d7 38bc 6ba8 373b
00000290: a97d ec39 e80f 163c deeb 1bbc 0922 efba
000002a0: 6e14 d1b9 872f 6fbb 7552 90bc dc3f c0b9
000002b0: 00b5 96bc 8dbe a8bc 58fe 9e38 d731 1cbc
000002c0: d836 883b 997c c53b 79af 8f3b a127 04bc
000002d0: 283a daba bd14 9a3c fd12 6bbb 7c74 453b
000002e0: f7a3 b0bb 1b75 faba 46ca c8ba e17f 353c
000002f0: c908 41bc 58a1 8b3c 01cb 30bb eef0 453c
00000300: c06a dcb7 e952 09bc b3f9 31bc 7670 373b
00000310: c249 b23b 747c a13c

weight f4 [3]
1.0014011 1.0012268 0.9986449
00000000: e92d 803f 3328 803f 31a7 7f3f

bias f4 [3]
0.0008655432 -0.0013528898 0.00018392812
00000000: 9fe5 623a 7353 b1ba d4dc 4039

running_mean f4 [3]
-0.0028914234 0.0011935838 -0.0016619745
00000000: 097e 3dbb 0772 9c3a 9cd6 d9ba

running_var f4 [3]
1.0030603 1.0032318 0.99759275
00000000: 4864 803f e669 803f 3d62 7f3f

weight f4 [200, 12]
-0.1226774 0.10470795 -0.20529728 0.10775983 0.2451112 0.018159436 -0.1933223 -0.103669256
0.062280107 -0.21904922 0.14232613 -0.2631373 -0.27639538 -0.28176495 -0.05729657 0.19511522
-0.2721635 0.2410053 -0.11516378 0.08429746 0.014446331 -0.26108444 0.23829216 0.15658502
0.28659344 0.1456283 -0.18925485 0.24078113 0.015426205 0.13762647 -0.23028219 -0.08342858
-0.2823248 -0.11141231 0.062945195 -0.22792229 0.091029786 0.15558837 0.040596627 -0.19300696
-0.22461483 -0.08899322 0.12708665 0.28436235 0.16514063 -0.031443212 0.100362934 -0.28451702
-0.24572921 0.1351109 -0.164797 0.13938339 -0.20404296 -0.14319053 -0.23720607 0.15056646
-0.0306886 0.22312193 0.17738591 0.15941894 0.00965489 -0.090550266 -0.06162869 0.038433272
0.14337665 -0.20245601 0.24154925 -0.030719692 -0.24078819 -0.15574428 0.25405678 0.2654068
-0.26816365 0.20474917 0.14357165 0.1705093 0.24370405 -0.1547996 0.09194756 0.116820306
-0.08626423 0.09799623 -0.0829573 0.17719212 -0.080764286 -0.106741965 0.07387101 0.10117893
-0.14202474 0.026556445 0.1683516 -0.028352782 0.087444834 -0.0683054 0.100665316 -0.21033065
-0.16849303 -0.14721894 0.2640901 -0.07653673 -0.0007187328 -0.14092042 0.28723076 0.28310803
-0.21666263 -0.23367451 -0.21916711 -0.0011810517 -0.07463551 -0.18825622 -0.10469057 0.05447141
-0.15085511 0.06462029 -0.065691136 -0.14064619 0.038720235 0.23867376 -0.19379751 0.014475406
-0.10768579 0.284362 -0.2751555 -0.2776157 0.28333017 -0.18269575 0.054588184 -0.023823628
-0.06208252 -0.06332075 0.18469451 0.012478813 -0.28223568 -0.16956247 -0.099669784 0.1464454
-0.18730888 0.2709539 -0.06311297 -0.051698036 0.2249283 0.14507456 0.24613352 0.16572616
-0.087898724 -0.19278832 -0.020208212 0.23796397 -0.09659754 -0.2668556 0.1195036 0.28008038
-0.08135868 -0.23961607 -0.26071286 0.07368522 -0.02155584 -0.1467951 0.05969655 0.11044349
0.23062414 0.22507572 -0.04400339 -0.2557842 -0.25959048 0.26864767 0.12759602 0.12702376
-0.24891123 0.26649952 0.2728076 0.25989193 -0.24243413 -0.10832673 -0.19824593 0.2726943
-0.123091705 -0.13306108 0.15027073 -0.1322605 -0.14099014 -0.026540335 -0.026557975 -0.22462869
0.24157184 -0.1260886 0.103698045 0.25057095 0.14671557 0.039722484 0.24552661 0.03903695
-0.13448305 0.27431226 0.067135386 -0.28136253 -0.081669495 -0.19749114 0.25411528 -0.048218377
-0.26445314 -0.01709977 0.18268755 0.073582195 0.09004874 0.027950615 0.10886172 -0.06901031
-0.11514355 -0.27070588 -0.21811943 0.12520476 -0.17118448 0.040137954 0.09222419 0.021769883
-0.18616109 0.27609578 -0.1676135 0.23864521 -0.22887456 -0.069384664 0.15819697 -0.11913852
0.24348648 -0.1980482 -0.24253988 -0.13139395 0.047085404 0.26472056 -0.1364531 0.1040589
-0.07185993 -0.06263545 0.21133597 -0.22336283 0.031993963 0.27018628 -0.040982474 0.22540355
-0.08941424 0.23313828 -0.28040156 -0.040508773 -0.04959274 0.09273368 0.114441015 0.22045472
-0.044129856 -0.010617307 0.19909486 -0.0766978 0.254261 -0.19354387 -0.029913653 -0.015276959
00000000: 4a3e fbbd 1f71 d63d 7339 52be 30b1 dc3d
00000010: 6efe 7a3e 19c3 943c 48f6 45be 8c50 d4bd
00000020: 6d19 7f3d 704e 60be f1bd 113e efb9 86be
00000030: b283 8dbe 7f43 90be cfaf 6abd 49cc 473e
00000040: 0459 8bbe 18ca 763e fdda ebbd 26a4 ac3d
00000050: 4eb0 6c3c dcac 85be dc02 743e d357 203e
00000060: 60bc 923e 961f 153e 06cc 41be 548f 763e
00000070: 31be 7c3c f4ed 0c3e 18cf 6bbe 9adc aabd
00000080: e08c 90be 232c e4bd 69e9 803d 7664 69be
00000090: d36d ba3d 8f52 1f3e a648 263d 9ea3 45be
000000a0: 6e01 66be 1442 b6bd 0123 023e f197 913e
000000b0: a01a 293e 99ca 00bd 158b cd3d 37ac 91be
000000c0: 70a0 7bbe 835a 0a3e 8bc0 28be 85ba 0e3e
000000d0: a3f0 50be 8aa0 12be 26e6 72be 182e 1a3e
000000e0: a966 fbbc 137a 643e a7a4 353e b83e 233e
000000f0: 8b2f 1e3c 6b72 b9bd 5e6e 7cbd 356c 1d3d
00000100: 54d1 123e a150 4fbe b058 773e dda7 fbbc
00000110: 2e91 76be 6e7b 1fbe bb13 823e 66e3 873e
00000120: bf4c 89be c4a9 513e 7204 133e fd99 2e3e
00000130: 8e8d 793e c983 1ebe 014f bc3d 7c3f ef3d
00000140: 4dab b0bd 3fb2 c83d 84e5 a9bd da71 353e
00000150: bf67 a5bd 889b dabd af49 973d e636 cf3d
00000160: ef6e 11be e78c d93c 5d64 2c3e 1844 e8bc
00000170: 4716 b33d b4e3 8bbd 9e29 ce3d eb60 57be
00000180: 7089 2cbe 90c0 16be d136 873e 4abf 9cbd
00000190: 5769 3cba 714d 10be e90f 933e 89f3 903e
000001a0: cfdc 5dbe 5f48 6fbe 586d 60be 85cd 9aba
000001b0: 81da 98bd 3dc6 40be 0268 d6bd 6a1d 5f3d
000001c0: c379 1abe a557 843d 1389 86bd 8e05 10be
000001d0: 1c99 1e3d e566 743e db72 46be 412a 6d3c
000001e0: 5e8a dcbd e597 913e 2fe1 8cbe a523 8ebe
000001f0: a710 913e 9814 3bbe dc97 5f3d c529 c3bc
00000200: 3e4a 7ebd 4fae 81bd 8f20 3d3e ef73 4c3c
00000210: 3281 90be c9a1 2dbe ac1f ccbd c8f5 153e
00000220: e6cd 3fbe 78ba 8a3e 5f41 81bd 52c1 53bd
00000230: 9b53 663e 6d8e 143e 6d0a 7c3e 1eb4 293e
00000240: 3f04 b4bd 4d6a 45be b18b a5bc d4ac 733e
00000250: eed4 c5bd 4ca1 88be 4ebe f43d b266 8f3e
00000260: 619f a6bd ea5d 75be 287c 85be 47e8 963d
00000270: df95 b0bc 7451 16be 5f84 743d 3230 e23d
00000280: bc28 6c3e 407a 663e e63c 34bd 26f6 82be
00000290: 0be9 84be 308c 893e 88a8 023e 8412 023e
000002a0: 96e2 7ebe a072 883e 70ad 8b3e 8e10 853e
000002b0: a740 78be 68da ddbd fb00 4bbe 969e 8b3e
000002c0: 8117 fcbd 2a41 08be 92e0 193e 4c6f 07be
000002d0: b85f 10be 1e6b d9bc 1c90 d9bc 1005 66be
000002e0: 9c5e 773e 5f1d 01be a45f d43d d64a 803e
000002f0: 9b3c 163e 0bb4 223d 546b 7b3e 35e5 1f3d
00000300: edb5 09be a872 8c3e 477e 893d c00e 90be
00000310: 5642 a7bd 1e3b 4abe 661b 823e a280 45bd
00000320: 6766 87be d114 8cbc 7212 3b3e 43b2 963d
00000330: 796b b83d b0f8 e43c e5f2 de3d 4755 8dbd
00000340: 62d0 ebbd f699 8abe b35a 5fbe ad35 003e
00000350: fc4a 2fbe b267 243d 09e0 bc3d c156 b23c
00000360: 03a1 3ebe 6d5c 8d3e e0a2 2bbe 695f 743e
00000370: 185e 6abe 8c19 8ebd 63fe 213e e5fe f3bd
00000380: 8554 793e 26cd 4abe 605c 78be 238c 06be
00000390: a0dc 403d 7489 873e 5dba 0bbe d51c d53d
000003a0: 4d2b 93bd 0447 80bd 7568 583e 3ab9 64be
000003b0: 1a0c 033d db55 8a3e 3ddd 27bd 30d0 663e
000003c0: d01e b7bd cdbb 6e3e cb90 8fbe 87ec 25bd
000003d0: c221 4bbd 28eb bd3d 0d60 ea3d e2be 613e
000003e0: 82c1 34bd 37f4 2dbc 86df 4b3e bc13 9dbd
000003f0: 7f2e 823e 5d30 46be 7a0d f5bc 364c 7abc

weight f4 [200]
0.9986335 1.0002993 1.0007058 0.9993972 1.0013816 1.0013725 1.0003093 0.99872416
0.99876726 1.0002775 0.9986236 1.0013893 1.0011716 0.9986426 0.99901664 0.998731
0.9992262 0.99976164 1.0002165 0.99890137 1.0012991 1.0012606 1.0010006 0.99881405
0.99900097 0.999248 0.9998278 1.0012658 1.000289 0.9987743 1.0003409 0.99875116
0.9994866 0.9987357 0.9988925 0.9989177 1.000878 0.9985876 1.001182 0.9986368
1.000273 1.0006564 1.0014156 1.001404 0.99940145 1.0008156 0.9998551 0.99894965
1.0008714 0.99859565 1.0013685 1.0011796 0.999665 1.0001354 1.0012178 1.0013115
1.0000414 0.99941885 0.99902105 1.0005442 0.99865985 0.9986608 0.9986422 0.99896723
0.9992023 1.0013238 1.000663 0.9991045 0.99888176 0.9999301 1.0013505 1.0009851
1.0004379 1.0013199 0.998729 1.000902 1.0010388 1.0001836 0.9987106 1.0007224
1.000966 1.0006174 1.0010374 1.0010098 0.9987587 1.0013734 1.0013264 1.0007582
0.99869394 0.99999684 1.0012473 1.0001951 1.0013856 0.99887985 0.9986878 1.0003681
0.9988644 0.9991702 1.0001807 1.0002867 1.0013009 1.0002843 0.99904805 1.0005001
0.9986122 0.99861085 0.9988548 0.9987594 1.0013957 0.999663 1.0013816 1.0014077
1.001097 0.99959505 1.0012871 0.9986391 0.99899465 0.9997417 1.0013944 0.99877304
1.0011686 1.0014062 1.0014069 1.0013502 1.0013535 1.0001874 0.9989172 0.9985938
0.9999175 1.0008168 0.99860036 0.99896854 1.0010071 1.0012605 0.99907875 0.99865943
0.99860686 0.9985887 1.0012242 1.0010442 1.0000378 0.9986706 1.0010481 1.0011898
0.9989907 1.0012441 1.0013591 1.0009471 0.9987624 1.0011327 0.9994761 0.99861526
1.0004967 0.99926513 0.9996207 1.0013229 1.0011597 1.0012275 1.0012996 0.9986906
1.0012991 0.9989664 1.0001688 0.99886286 0.9988003 1.001295 1.0000241 1.0007461
1.0014148 0.9986944 1.0001595 1.0003483 1.000195 0.99890655 1.0012308 1.0008925
0.9986583 1.0009495 1.0012611 1.0009547 1.0013845 1.0014063 1.0013633 1.001139
1.0009629 1.0013688 0.9985846 0.9985881 0.9989399 0.99869543 1.0013257 1.0009521
0.9986466 0.99859464 0.9994913 0.9986475 1.0012641 1.0011489 1.0004901 1.0012906
00000000: 72a6 7f3f cf09 803f 2117 803f 7fd8 7f3f
00000010: 462d 803f f92c 803f 230a 803f 63ac 7f3f
00000020: 36af 7f3f 1809 803f cca5 7f3f 862d 803f
00000030: 6426 803f 0ba7 7f3f 8ebf 7f3f d6ac 7f3f
00000040: 4acd 7f3f 61f0 7f3f 1807 803f 00b8 7f3f
00000050: 922a 803f 4f29 803f ca20 803f 47b2 7f3f
00000060: 87be 7f3f b8ce 7f3f b7f4 7f3f 7a29 803f
00000070: 7809 803f acaf 7f3f 2c0b 803f 28ae 7f3f
00000080: 5bde 7f3f 25ad 7f3f 6bb7 7f3f 12b9 7f3f
00000090: c51c 803f 70a3 7f3f bb26 803f a9a6 7f3f
000000a0: f208 803f 8215 803f 632e 803f 022e 803f
000000b0: c6d8 7f3f ba1a 803f 81f6 7f3f 2abb 7f3f
000000c0: 8e1c 803f f7a3 7f3f d82c 803f a726 803f
000000d0: 0cea 7f3f 7004 803f e827 803f fa2a 803f
000000e0: 5b01 803f ead9 7f3f d8bf 7f3f d511 803f
000000f0: 2ca8 7f3f 3ca8 7f3f 04a7 7f3f 51bc 7f3f
00000100: b9cb 7f3f 612b 803f ba15 803f 50c5 7f3f
00000110: b7b6 7f3f 6bfb 7f3f 412c 803f 4820 803f
00000120: 590e 803f 402b 803f b4ac 7f3f 8f1d 803f
00000130: 0a22 803f 0406 803f 7fab 7f3f ac17 803f
00000140: a71f 803f 3b14 803f fe21 803f 1721 803f
00000150: a6ae 7f3f 012d 803f 772b 803f d818 803f
00000160: 68aa 7f3f cbff 7f3f df28 803f 6506 803f
00000170: 672d 803f 97b6 7f3f 01aa 7f3f 100c 803f
00000180: 94b5 7f3f 9ec9 7f3f ec05 803f 6509 803f
00000190: a12a 803f 5109 803f 9dc1 7f3f 6310 803f
000001a0: 0da5 7f3f f6a4 7f3f f3b4 7f3f b2ae 7f3f
000001b0: bc2d 803f eae9 7f3f 462d 803f 212e 803f
000001c0: f223 803f 76e5 7f3f 2d2a 803f d0a6 7f3f
000001d0: 1dbe 7f3f 12ef 7f3f b12d 803f 97af 7f3f
000001e0: 4b26 803f 142e 803f 1a2e 803f 3e2c 803f
000001f0: 5a2c 803f 2406 803f 0ab9 7f3f d8a3 7f3f
00000200: 98fa 7f3f c41a 803f 46a4 7f3f 67bc 7f3f
00000210: 0021 803f 4e29 803f a0c3 7f3f 25a8 7f3f
00000220: b3a4 7f3f 82a3 7f3f 1d28 803f 3722 803f
00000230: 3d01 803f e0a8 7f3f 5822 803f fd26 803f
00000240: dbbd 7f3f c428 803f 892c 803f 091f 803f
00000250: e5ae 7f3f 1e25 803f aadd 7f3f 40a5 7f3f
00000260: 4710 803f d7cf 7f3f 24e7 7f3f 592b 803f
00000270: 0026 803f 3928 803f 962a 803f 30aa 7f3f
00000280: 922a 803f 43bc 7f3f 8805 803f 7ab5 7f3f
00000290: 60b1 7f3f 6f2a 803f ca00 803f 7318 803f
000002a0: 5c2e 803f 70aa 7f3f 3a05 803f 6a0b 803f
000002b0: 6406 803f 57b8 7f3f 5528 803f 3f1d 803f
000002c0: 12a8 7f3f 1d1f 803f 5329 803f 491f 803f
000002d0: 5e2d 803f 152e 803f ac2c 803f 5325 803f
000002e0: 8d1f 803f da2c 803f 3ea3 7f3f 78a3 7f3f
000002f0: 86ba 7f3f 81aa 7f3f 712b 803f 331f 803f
00000300: 4ea7 7f3f e6a3 7f3f a9de 7f3f 5da7 7f3f
00000310: 6c29 803f a625 803f 0f10 803f 4a2a 803f

bias f4 [200]
0.0018279589 -0.0001488138 -0.00033904522 0.0009304713 -0.00020655294 0.0010208343 0.00054117513 0.0023758467
0.002207812 -0.00038634392 0.00240508 0.00071757496 -0.00029470518 -0.00040564034 0.0019117318 0.0011659526
0.0014157444 0.0022648694 0.00015052158 0.00048504723 0.0019528286 0.00068444386 -0.00012394859 0.00093853846
0.00086193933 0.00019679451 0.0021064752 0.002117669 -0.0003309027 0.0019900014 0.00068203575 0.0021911329
0.001504574 0.0023221874 0.002034082 0.0018902168 -0.00024354411 0.002338675 0.0023186547 0.00034203604
0.0005041398 0.00015714404 -0.00018542769 -0.00021207266 0.0023015703 0.0017610023 0.00024990417 0.00087184616
-0.0004020572 0.002221216 0.00079737185 0.001724847 0.0019163603 -0.0002095078 0.0012237002 -0.00036112327
0.0020117243 0.001839171 0.0007468099 -0.00034456514 -0.00017221767 0.00026232342 0.0024081764 0.0022344822
0.0006249144 0.002191183 0.0011006073 0.0020953764 0.0007546316 0.00011271131 0.0020809558 3.2328375e-05
0.002179155 -0.00021457329 0.0020886515 0.0009159484 0.0019278836 -0.00021575677 0.0008887608 0.0014981036
-0.00019771894 0.0010736372 0.0010566183 -0.00026738737 0.0006194593 -4.446396e-06 -0.00018044157 0.00023677215
0.0014444692 0.0018312037 0.0017482976 0.001338941 0.0012072641 0.0003537394 0.0022276088 0.0017977318
0.0022702808 0.0018025056 -0.0002526699 0.00043057825 0.00038756224 0.0012386111 0.00039019945 -0.00031757087
0.00143887 0.00070615445 0.0021964265 0.0017739545 0.00038290804 0.0017000774 0.002387857 0.0004212794
5.698492e-05 0.0022104876 0.0012910144 0.002054686 0.0009042765 0.00235233 0.0009447131 0.0015256562
0.00078912464 -6.7594316e-05 0.0018191522 -0.00034429473 0.00061158824 0.0020469034 0.001546514 0.0017687236
0.0013275644 0.0013303633 0.0016172891 0.00027395456 0.0021122696 -8.906267e-06 0.0023755888 0.0020209446
0.0019291852 0.0021770021 0.0015878018 0.0023066662 0.002234378 0.002150271 0.0018655774 0.0010960479
0.0016309363 -0.00010026153 0.0023827436 0.0010522231 0.002003715 -0.00040717178 7.2907744e-05 -0.00011959707
0.0023007987 -0.00022181118 0.00037486793 0.001616161 -5.8736186e-05 0.0019320901 -0.0003419699 0.0023342422
0.00091032404 0.0010974891 0.0005441762 0.00059601734 0.0011954564 0.001982483 0.0023555274 0.001146444
-0.00038723525 -0.000116505136 0.0013229614 -0.00024176875 0.0023547658 0.0015568888 0.00020222661 0.0022916473
0.0022397037 -0.0001804867 0.0007314193 0.0011955808 0.00200878 -0.00036882114 0.0013596342 0.0017593375
-0.00023006354 0.0004212979 -0.00016139008 0.0023283516 5.5836048e-05 0.00093317137 0.0005889915 0.00042539416
0.0021442194 0.002035906 0.00030516114 0.00028431808 0.0003047826 0.00012974057 0.0023910548 -0.00031387873
00000000: 1f98 ef3a e60a 1cb9 e1c1 b1b9 dfea 733a
00000010: 2296 58b9 84cd 853a a6dd 0d3a 18b4 1b3b
00000020: f0b0 103b 348e cab9 8c9e 1d3b a41b 3c3a
00000030: a982 9ab9 20ac d4b9 1393 fa3a e1d2 983a
00000040: 8090 b93a 346e 143b 54d5 1d39 f04d fe39
00000050: 0ef6 ff3a 406c 333a 32f8 01b9 4008 763a
00000060: c5f3 613a a05a 4e39 ca0c 0a3b 97c8 0a3b
00000070: 027d adb9 af6a 023b a5ca 323a 1c99 0f3b
00000080: 2035 c53a d72f 183b 3c4e 053b 27c1 f73a
00000090: e05f 7fb9 7544 193b 92f4 173b 4d53 b339
000000a0: 4028 043a 08c7 2439 5e6f 42b9 d25f 5eb9
000000b0: f1d5 163b 6fd1 e63a 9205 8339 9b8c 643a
000000c0: 34cb d2b9 d291 113b b806 513a 4314 e23a
000000d0: 622e fb3a 52af 5bb9 9164 a03a 2555 bdb9
000000e0: 22d7 033b 5710 f13a 90c5 433a c0a6 b4b9
000000f0: 5495 34b9 7488 8939 7fd2 1d3b 6470 123b
00000100: 4cd1 233a f399 0f3b 4142 903a 9552 093b
00000110: 78d2 453a 6c5f ec38 a560 083b 5498 0738
00000120: 27d0 0e3b 14ff 60b9 c2e1 083b 421c 703a
00000130: 0ab1 fc3a c43c 62b9 bafb 683a 045c c43a
00000140: c652 4fb9 49b9 8c3a 3a7e 8a3a 2030 8cb9
00000150: 3663 223a 4032 95b6 ea34 3db9 0a46 7839
00000160: 5854 bd3a 0005 f03a 2227 e53a 687f af3a
00000170: 103d 9e3a 1976 b939 13fd 113b dfa1 eb3a
00000180: fec8 143b 0d42 ec3a c878 84b9 3cbf e139
00000190: b931 cb39 e458 a23a af93 cc39 a47f a6b9
000001a0: 7798 bc3a 391d 393a ecf1 0f3b 0984 e83a
000001b0: 0cc1 c839 22d5 de3a 987d 1c3b 2adf dc39
000001c0: 1803 6f38 d4dd 103b 4137 a93a e9a7 063b
000001d0: f80c 6d3a 8c29 1a3b 9fa6 773a 87f8 c73a
000001e0: 42dd 4e3a 6cc1 8db8 9e70 ee3a 7582 b4b9
000001f0: fe52 203a 5725 063b 66b4 ca3a 84d4 e73a
00000200: ab01 ae3a 965f ae3a 38fb d33a 8fa1 8f39
00000210: 016e 0a3b 206c 15b7 c4af 1b3b d371 043b
00000220: b7dc fc3a 09ac 0e3b ca1d d03a 702b 173b
00000230: a46e 123b 90eb 0c3b 6486 f43a 44a9 8f3a
00000240: 24c5 d53a 8043 d2b8 ce27 1c3b c0ea 893a
00000250: c250 033b ac79 d5b9 0ce6 9838 30d0 fab8
00000260: ffc8 163b fc95 68b9 ec89 c439 5dd5 d33a
00000270: 805b 76b8 303e fd3a 6c4a b3b9 16fa 183b
00000280: d0a2 6e3a a0d9 8f3a 0ca7 0e3a 0c3e 1c3a
00000290: dcb0 9c3a 8cec 013b 315f 1a3b 4744 963a
000002a0: d605 cbb9 3854 f4b8 3867 ad3a 4e83 7db9
000002b0: 6a52 1a3b 8510 cc3a cb0c 5439 762f 163b
000002c0: fec7 123b 0841 3db9 b8bc 3f3a 09b5 9c3a
000002d0: bca5 033b 565e c1b9 c135 b23a 9299 e63a
000002e0: 363d 71b9 a6e1 dc39 d23a 29b9 4297 183b
000002f0: 8031 6a38 12a0 743a 8d66 1a3a 7007 df39
00000300: 0886 0c3b d66c 053b 09fe 9f39 8710 9539
00000310: 3acb 9f39 f80a 0839 3eb3 1c3b 1790 a4b9

running_mean f4 [200]
0.04087504 0.05028932 0.026186854 0.026447708 0.031909954 0.04957802 0.022702787 0.023530677
0.02885082 0.040231336 0.024527017 0.034093857 0.03236093 0.03241838 0.027839316 0.027555272
0.024157904 0.010436926 0.03365766 0.039505307 0.023586143 0.020621546 0.034420922 0.05021256
0.035083197 0.034000926 0.024698963 0.044970028 0.027316704 0.02985613 0.023097582 0.020754367
0.022931192 0.027554043 0.029446278 0.037463576 0.008963816 0.0406712 0.03241918 0.028227834
0.032586552 0.03900663 0.021378603 0.042292297 0.027960476 0.050422344 0.028197516 0.03431972
0.028933149 0.032283332 0.029762432 0.028933663 0.039030142 0.048197918 0.022388287 0.03143499
0.032415237 0.030015465 0.038841713 0.04041359 0.033451464 0.02866048 0.0398662 0.035327196
0.031837597 0.029542148 0.050265916 0.029003084 0.040920604 0.03029498 0.031200599 0.04356934
0.030414779 0.036476232 0.027173918 0.019629385 0.046211265 0.044211105 0.008259304 0.031812083
0.024322838 0.022255383 0.028741231 0.025335902 0.019229451 0.015269952 0.013728339 0.03207506
0.03308661 0.017862815 0.013128683 0.033254676 0.04137639 0.014175791 0.028866773 0.027600959
0.022336576 0.026741728 0.03017427 0.027409375 0.030792437 0.029081985 0.03226123 0.010437353
0.02680448 0.05095098 0.025884066 0.014471462 0.027216733 0.015683033 0.017662251 0.024548251
0.012851875 0.018486355 0.031453677 0.021973714 0.051035605 0.012881308 0.031772405 0.021748243
0.026597533 0.03344986 0.01859953 0.038901716 0.025018549 0.046262555 0.022551056 0.029958079
0.02752193 0.028588474 0.020923179 0.04440578 0.024381889 0.0133604165 0.022165658 0.04456311
0.027578019 0.03537789 0.026419118 0.030104626 0.0335632 0.028734133 0.054901674 0.020006785
0.014255132 0.014606008 0.01442891 0.04160601 0.048685312 0.045833357 0.032833587 0.03576314
0.04104412 0.016331747 0.032576002 0.031951636 0.024242308 0.031904053 0.03229019 0.03117244
0.02300942 0.03192781 0.02389374 0.038653944 0.03201125 0.03496606 0.010373708 0.024212457
0.03349992 0.008253241 0.030246913 0.030040827 0.038101275 0.03308817 0.048196487 0.021585595
0.011808531 0.03639168 0.0213882 0.039012812 0.019807467 0.030044176 0.019929603 0.020502938
0.028676268 0.03948702 0.01075492 0.028569698 0.016545078 0.017838676 0.032663018 0.041875727
0.03776055 0.03375003 0.037439153 0.024085212 0.019787438 0.026863765 0.030005004 0.0190727
00000000: 966c 273d 2dfc 4d3d d085 d63c dda8 d83c
00000010: 03b4 023d 5212 4b3d 32fb b93c 68c3 c03c
00000020: 8e58 ec3c 9dc9 243d e2ec c83c 00a6 0b3d
00000030: e58c 043d 23c9 043d 470f e43c 98bb e13c
00000040: cce6 c53c a4ff 2a3c 9ddc 093d 51d0 213d
00000050: ba37 c13c 84ee a83c f4fc 0c3d afab 4d3d
00000060: 66b3 0f3d 8e44 0b3d 7b55 ca3c 7e32 383d
00000070: 48c7 df3c d894 f43c 2437 bd3c 1005 aa3c
00000080: 32da bb3c 04b9 e13c 5239 f13c 6873 193d
00000090: f8dc 123c d896 263d f9c9 043d 0f3e e73c
000000a0: 7a79 053d 6bc5 1f3d 2e22 af3c b03a 2d3d
000000b0: 5e0d e53c a987 4e3d 7afe e63c d692 0c3d
000000c0: 3605 ed3c 873b 043d 58d0 f33c 4a06 ed3c
000000d0: 12de 1f3d 2e6b 453d a467 b73c fac1 003d
000000e0: d7c5 043d fee2 f53c 7d18 1f3d b888 253d
000000f0: 6704 093d 62c9 ea3c be4a 233d 40b3 103d
00000100: 2468 023d 6002 f23c a2e3 4d3d e097 ed3c
00000110: 5d9c 273d 2e2d f83c 6698 ff3c c475 323d
00000120: 6a28 f93c 1a68 153d d69b de3c cecd a03c
00000130: 0648 3d3d b416 353d 0852 073c 634d 023d
00000140: b040 c73c ec50 b63c bb72 eb3c 3d8d cf3c
00000150: 1587 9d3c d22e 7a3c d4ec 603c 2361 033d
00000160: d385 073d 0a55 923c b019 573c 0e36 083d
00000170: 4a7a 293d 9441 683c 037a ec3c 681b e23c
00000180: 32fb b63c 7811 db3c 0830 f73c a089 e03c
00000190: 6c40 fc3c 583d ee3c 5a24 043d 6e01 2b3c
000001a0: 1295 db3c fab1 503d d20a d43c b619 6d3c
000001b0: a0f5 de3c b479 803c 6db0 903c 6a19 c93c
000001c0: ac90 523c b270 973c 92d5 003d 3802 b43c
000001d0: b60a 513d 1f0c 533c c823 023d 5f29 b23c
000001e0: 12e3 d93c b802 093d 0b5e 983c 6857 1f3d
000001f0: b3f3 cc3c ce7d 3d3d febc b83c a56a f53c
00000200: ac75 e13c 6032 ea3c 1667 ab3c d6e2 353d
00000210: 87bc c73c a6e5 5a3c c194 b53c cf87 363d
00000220: 4ceb e13c 68e8 103d e86c d83c fa9d f63c
00000230: 9179 093d d863 eb3c 94e0 603d 45e5 a33c
00000240: 5b8e 693c 0a4e 6f3c 3c67 6c3c 106b 2a3d
00000250: 406a 473d c2bb 3b3d 837c 063d 5f7c 123d
00000260: e11d 283d 28ca 853c 6a6e 053d b8df 023d
00000270: ce97 c63c d3ad 023d b842 043d 585d ff3c
00000280: 407e bc3c bcc6 023d cebc c33c 9953 1e3d
00000290: 3a1e 033d 9238 0f3d 7cf6 293c 3459 c63c
000002a0: 3637 093d 9a38 073c 60c8 f73c 2e18 f63c
000002b0: 1510 1c3d 7687 073d ae69 453d 46d4 b03c
000002c0: 9278 413c 710f 153d 4e36 af3c e6cb 1f3d
000002d0: 4543 a23c 341f f63c 6843 a33c c7f5 a73c
000002e0: 7eea ea3c 24bd 213d 6735 303c 000b ea3c
000002f0: 8b89 873c 6a22 923c a8c9 053d e285 2b3d
00000300: ceaa 1a3d 793d 0a3d cc59 193d 5a4e c53c
00000310: 4419 a23c 6611 dc3c 0ecd f53c 5a3e 9c3c

running_var f4 [200]
0.74426407 0.74795777 0.7366465 0.73925364 0.7373956 0.7488686 0.7328223 0.735496
0.73526704 0.73889387 0.73318976 0.738667 0.73695374 0.7363052 0.7354533 0.73464245
0.7332386 0.7298548 0.73653525 0.73848623 0.733037 0.73359096 0.7370019 0.7472006
0.73999697 0.7392332 0.7328954 0.7428266 0.73556745 0.73908097 0.7329022 0.73207474
0.7331509 0.7339734 0.73692536 0.7428075 0.72958827 0.74242 0.73531175 0.73410887
0.73658884 0.74354 0.73272264 0.7423306 0.7358476 0.7455658 0.7355361 0.73992527
0.73554164 0.73749965 0.734818 0.7339197 0.74189276 0.750054 0.73240054 0.7360294
0.7391998 0.7361262 0.7375314 0.7429681 0.7349745 0.73620117 0.7445677 0.73664254
0.73768693 0.7347864 0.7498456 0.7383059 0.7414194 0.73903733 0.73743236 0.7437936
0.73767346 0.73929816 0.7331021 0.7319676 0.7425361 0.74071413 0.7295367 0.7342557
0.73323727 0.73275137 0.735574 0.733655 0.73150814 0.73085487 0.7304154 0.73535055
0.7378269 0.73175365 0.7314029 0.73683715 0.7434003 0.7301876 0.7377042 0.73467535
0.73292476 0.73389745 0.73516244 0.7352695 0.7366992 0.73513263 0.73724717 0.7299615
0.7347456 0.7462044 0.7344168 0.7306319 0.7340844 0.7317847 0.7317538 0.73307157
0.7309921 0.7315726 0.7358082 0.73544306 0.74807656 0.7302884 0.7370024 0.732512
0.7345374 0.73948413 0.73133665 0.74279827 0.73228073 0.74477834 0.73271704 0.7356256
0.73486835 0.73866814 0.7334691 0.7409727 0.7339661 0.7307122 0.733063 0.7413229
0.7353502 0.7383525 0.7342334 0.73377454 0.73697835 0.73524845 0.74905795 0.73504305
0.73047715 0.730325 0.7304615 0.74197257 0.7468353 0.7464609 0.73766834 0.7405599
0.74118346 0.7319141 0.7369643 0.73999894 0.7355319 0.73722345 0.73670167 0.7341235
0.73405915 0.7355788 0.73276705 0.7409615 0.73778176 0.7372358 0.7298592 0.7338473
0.73802793 0.7295207 0.7351535 0.7347927 0.7386073 0.73668844 0.7481956 0.7337593
0.730785 0.73896813 0.73150325 0.7415724 0.73182154 0.73593426 0.73214054 0.735142
0.7336233 0.7427511 0.7298766 0.7362839 0.73110646 0.7335087 0.7378612 0.7422335
0.7421895 0.7377887 0.7420386 0.7325603 0.73178434 0.73416036 0.7333529 0.73151654
00000000: 1788 3e3f 297a 3f3f dd94 3c3f ba3f 3d3f
00000010: f5c5 3c3f dab5 3f3f 3e9a 3b3f 7749 3c3f
00000020: 763a 3c3f 2628 3d3f 53b2 3b3f 4819 3d3f
00000030: 00a9 3c3f 7f7e 3c3f ab46 3c3f 8711 3c3f
00000040: 86b5 3b3f c4d7 3a3f 938d 3c3f 6f0d 3d3f
00000050: 50a8 3b3f 9ecc 3b3f 28ac 3c3f 8a48 3f3f
00000060: 7170 3d3f 633e 3d3f 089f 3b3f e229 3e3f
00000070: 264e 3c3f 6934 3d3f 7b9f 3b3f 4069 3b3f
00000080: c7af 3b3f aee5 3b3f 24a7 3c3f a228 3e3f
00000090: 4cc6 3a3f 3d0f 3e3f 643d 3c3f 8fee 3b3f
000000a0: 1691 3c3f a358 3e3f b693 3b3f 6109 3e3f
000000b0: 8260 3c3f 66dd 3e3f 184c 3c3f be6b 3d3f
000000c0: 754c 3c3f c7cc 3c3f 081d 3c3f 29e2 3b3f
000000d0: afec 3d3f 8a03 403f 9a7e 3b3f 6c6c 3c3f
000000e0: 333c 3d3f c472 3c3f dcce 3c3f 2833 3e3f
000000f0: 4a27 3c3f ae77 3c3f fd9b 3e3f 9b94 3c3f
00000100: 0dd9 3c3f f61a 3c3f e2f5 3f3f 9e01 3d3f
00000110: a9cd 3d3f 8d31 3d3f 5ec8 3c3f 4269 3e3f
00000120: 2bd8 3c3f a542 3d3f 94ac 3b3f 3b62 3b3f
00000130: d916 3e3f 719f 3d3f ebc2 3a3f 2ef8 3b3f
00000140: 70b5 3b3f 9895 3b3f 944e 3c3f d0d0 3b3f
00000150: 1e44 3b3f 4e19 3b3f 81fc 3a3f ef3f 3c3f
00000160: 39e2 3c3f 3554 3b3f 383d 3b3f 5ca1 3c3f
00000170: 7b4f 3e3f 93ed 3a3f 2fda 3c3f af13 3c3f
00000180: f5a0 3b3f b4e0 3b3f 9b33 3c3f 9f3a 3c3f
00000190: 5298 3c3f a731 3c3f 3bbc 3c3f c2de 3a3f
000001a0: 4a18 3c3f 4007 3f3f bd02 3c3f b10a 3b3f
000001b0: f5ec 3b3f 3e56 3b3f 3854 3b3f 94aa 3b3f
000001c0: 4c22 3b3f 5848 3b3f ed5d 3c3f ff45 3c3f
000001d0: f281 3f3f 2ef4 3a3f 30ac 3c3f e885 3b3f
000001e0: a50a 3c3f d54e 3d3f e138 3b3f 0728 3e3f
000001f0: c076 3b3f cba9 3e3f 5893 3b3f f651 3c3f
00000200: 5520 3c3f 5b19 3d3f a2c4 3b3f 63b0 3d3f
00000210: 34e5 3b3f f40f 3b3f 04aa 3b3f 56c7 3d3f
00000220: e93f 3c3f ab04 3d3f b8f6 3b3f a6d8 3b3f
00000230: 9daa 3c3f 3e39 3c3f 43c2 3f3f c82b 3c3f
00000240: 8d00 3b3f 94f6 3a3f 86ff 3a3f eaf1 3d3f
00000250: 9930 3f3f 1018 3f3f d5d7 3c3f 5595 3d3f
00000260: 33be 3d3f b95e 3b3f b1a9 3c3f 9270 3d3f
00000270: d24b 3c3f adba 3c3f 7b98 3c3f 85ef 3b3f
00000280: 4deb 3b3f e44e 3c3f 9f96 3b3f a7af 3d3f
00000290: 44df 3c3f 7cbb 3c3f 0dd8 3a3f 6bdd 3b3f
000002a0: 66ef 3c3f dec1 3a3f 0533 3c3f 601b 3c3f
000002b0: 5e15 3d3f 9d97 3c3f bf89 3f3f a6d7 3b3f
000002c0: ba14 3b3f 042d 3d3f cc43 3b3f b0d7 3d3f
000002d0: a858 3b3f 3066 3c3f 906d 3b3f 4432 3c3f
000002e0: bdce 3b3f f024 3e3f 31d9 3a3f 1a7d 3c3f
000002f0: cb29 3b3f 3ac7 3b3f 79e4 3c3f 0403 3e3f
00000300: 2200 3e3f b8df 3c3f 3ef6 3d3f 1289 3b3f
00000310: 3856 3b3f eff1 3b3f 04bd 3b3f ab44 3b3f

weight f4 [100, 200]
-0.007361769 -0.036772627 -0.018311355 -0.0030244254 0.03305448 0.06401059 0.052285116 0.006237362
-0.0058082878 0.019100301 -0.002091089 -0.007930919 0.022922417 -0.05614368 -0.061228983 0.0015983266
-0.021733824 -0.033654694 -0.0671632 0.048653863 -0.0016462165 -0.037789077 -0.029919937 0.017266646
-0.0509061 0.003190747 -0.0022327174 0.02387498 0.029218994 -0.04752194 0.029184416 0.052761585
0.0037200402 0.03462842 -0.02817362 0.013267211 0.021958401 -0.034068737 0.044691313 -0.06814805
-0.027880572 -0.04129862 -0.043384302 -0.044263467 -0.066369936 0.012618189 -0.013253107 -0.06093584
-0.0014313859 -0.013181803 0.0277922 -0.05422726 -0.01855304 0.01357339 0.031332083 0.0039448086
0.017865967 0.069330856 -0.023265058 0.04687517 0.062278062 -0.06396142 0.015961474 0.041407425
-0.012426816 0.039985955 0.0009918463 0.053843793 0.00012216053 -0.044754133 0.055007156 0.019621586
0.059813447 0.016161945 0.038844947 0.04267779 0.012928703 -0.015205328 0.013200756 -0.04789194
0.0010387651 -0.024067672 0.0031057522 -0.05727645 0.043660436 -0.066634096 0.028877819 0.04792737
-0.066220745 0.0624887 -0.053735714 -0.014580699 0.035237208 -0.021182347 0.06162742 -0.03260051
-0.01084729 -0.044849344 -0.03379614 0.07036831 0.054533977 0.003809136 0.0044133025 -0.05998537
0.05197023 -0.009643108 -0.02820163 -0.057609193 0.059507556 0.032155838 0.04120547 0.0060435976
-0.04891075 0.030289179 0.008325612 0.023534812 -0.018649539 -0.03477705 0.056723677 0.022294827
-0.02999839 0.0048994985 -0.016134962 -0.0074523794 0.041063927 -0.0573763 0.06259906 0.04619525
-0.001291954 -0.029520223 0.013041647 -0.045552343 0.04453606 -0.038774937 0.014720775 -0.06869371
0.032444984 0.046452343 0.051670358 0.007179972 0.040613875 0.022727383 0.04783276 0.03910625
-0.063276514 0.006108989 -0.025512407 -0.03512438 0.04807875 -0.011375974 0.01231116 0.043104824
0.046237 0.03751823 -0.0137328645 -0.06178413 -0.06785079 0.023567209 -0.002252941 -0.04326203
0.03216868 0.062885754 0.042080067 -0.009044742 0.008436421 -0.046374157 0.03404712 -0.05534031
0.048739895 -0.03090885 -0.029440887 -0.060396805 -0.016884554 -0.0060442844 -0.033930473 0.049864367
0.039364498 -0.06373437 -0.0056942147 0.025091754 0.069596134 -0.018296488 0.04470092 -0.0053058984
-0.02573686 0.04188392 -0.06166557 0.057844922 0.07191303 -0.020720258 0.026537567 0.070758276
0.019916914 0.026246589 0.02455426 -0.027550515 0.016199017 -0.039065097 0.061775547 -0.03165648
0.017047247 -0.019790167 0.03619526 0.0022247047 0.037504368 -0.01856258 -0.041659653 0.027953401
-0.039947033 -0.058197785 0.027102308 -0.04285201 -0.02661471 -0.019065995 0.0056714434 -0.024814388
-0.025620798 -0.019067042 0.049129933 0.019954039 -0.033781096 -0.04789797 0.0014375335 0.022410633
-0.0007316188 0.042725988 0.059125207 0.020723026 0.024125857 0.042016212 -0.025037473 0.013634434
0.057587445 -0.033848185 0.0066059586 -0.026666228 -0.05350083 0.03768401 0.055964254 -0.03831875
0.025690166 0.022472207 0.027398076 0.03920097 0.06666097 0.052914247 -0.06315318 -0.027522976
0.03762856 -0.040040348 0.014030058 -0.029042944 0.012636615 0.035133213 0.022194428 0.05043313
00000000: ff3a f1bb e59e 16bd b201 96bc 7035 46bb
00000010: 2264 073d fc17 833d eb28 563d c962 cc3b
00000020: 7353 bebb 3c78 9c3c a70a 09bb aff0 01bc
00000030: cbc7 bb3c eaf6 65bd 3ecb 7abd f17e d13a
00000040: 220b b2bc 81d9 09bd dc8c 89bd 4649 473d
00000050: dcc5 d7ba b8c8 1abd a81a f5bc c872 8d3c
00000060: ea82 50bd da1b 513b c852 12bb 7695 c33c
00000070: ac5c ef3c 5ea6 42bd 2814 ef3c 881c 583d
00000080: ebcb 733b 88d6 0d3d 5dcc e6bc b75e 593c
00000090: 1be2 b33c a98b 0bbd 3d0e 373d 3491 8bbd
000000a0: cc65 e4bc be28 29bd bdb3 31bd 9c4d 35bd
000000b0: f6ec 87bd 85bc 4e3c 8f23 59bc dc97 79bd
000000c0: 579d bbba 7df8 57bc 78ac e33c 671d 5ebd
000000d0: 8cfc 97bc ed62 5e3c 1256 003d 7443 813b
000000e0: a65b 923c 56fd 8d3d 5d96 bebc 2e00 403d
000000f0: 4817 7f3d 34fe 82bd a3c1 823c d59a 293d
00000100: d899 4bbc 50c8 233d d700 823a 4f8b 5c3d
00000110: 3818 0039 1c50 37bd 2f4f 613d 73bd a03c
00000120: f2fe 743d 0e66 843c e11b 1f3d e8ce 2e3d
00000130: e9d2 533c c51f 79bc fc47 583c 572a 44bd
00000140: 2c27 883a 9129 c5bc e089 4b3b b69a 6abd
00000150: 49d5 323d 7577 88bd 2d91 ec3c 7d4f 443d
00000160: be9e 87bd 27f4 7f3d fb19 5cbd e2e3 6ebc
00000170: e454 103d 9a86 adbc 096d 7c3d 1d88 05bd
00000180: d5b8 31bc f2b3 37bd d26d 0abd 431d 903d
00000190: 055f 5f3d b3a2 793b 779d 903b 38b3 75bd
000001a0: bcde 543d 20fe 1dbc 1b07 e7bc 9ef7 6bbd
000001b0: 32be 733d d7b5 033d 11c7 283d 5f09 c63b
000001c0: a356 48bd 0321 f83c 2668 083c 14cc c03c
000001d0: ebc6 98bc 6172 0ebd 1657 683d a4a3 b63c
000001e0: 2fbf f5bc f98b a03b 782d 84bc 1733 f4bb
000001f0: a632 283d 6903 6bbd f033 803d 3b37 3d3d
00000200: c856 a9ba 65d4 f1bc a2ac 553c 1895 3abd
00000210: 726b 363d 78d2 1ebd 682f 713c 4aaf 8cbd
00000220: 08e5 043d d044 3e3d 4ca4 533d f845 eb3b
00000230: bc5a 263d c72e ba3c 49ec 433d e02d 203d
00000240: 1e97 81bd ea2d c83b 65ff d0bc 95de 0fbd
00000250: 39ee 443d 4b62 3abc bfb4 493c af8e 303d
00000260: 0263 3d3d b7ac 193d cfff 60bc 5b11 7dbd
00000270: 5bf5 8abd 0510 c13c 14a6 13bb 8733 31bd
00000280: 4ec3 033d 3fca 803d 265c 2c3d 6630 14bc
00000290: ea38 0a3c d4f2 3dbd fe74 0b3d 85ac 62bd
000002a0: 7ca3 473d 8e34 fdbc 042e f1bc a462 77bd
000002b0: 7a51 8abc 220f c6bb aefa 0abd 943e 4c3d
000002c0: ab3c 213d 2a87 82bd 8996 babb 398d cd3c
000002d0: 6b88 8e3d 84e2 95bc 5018 373d 1add adbb
000002e0: 1cd6 d2bc 798e 2b3d 0995 7cbd ccee 6c3d
000002f0: 2447 933d 88bd a9bc 5065 d93c b7e9 903d
00000300: cc28 a33c 1603 d73c 0426 c93c 9eb1 e1bc
00000310: cdb3 843c b902 20bd 5b08 7d3d 3aaa 01bd
00000320: aba6 8b3c fd1e a2bc 7b41 143d 5acc 113b
00000330: 2e9e 193d 8d10 98bc 50a3 2abd 88fe e43c
00000340: 809f 23bd cd60 6ebd a905 de3c 9785 2fbd
00000350: 1807 dabc 4a30 9cbc 84d7 b93b 8b47 cbbc
00000360: b5e2 d1bc 7c32 9cbc 783c 493d a776 a33c
00000370: 0c5e 0abd a930 44bd 9f6b bc3a 8196 b73c
00000380: 1bca 3fba 7201 2f3d 462d 723d 56c3 a93c
00000390: 97a3 c53c 3119 2c3d 631b cdbc f662 5f3c
000003a0: d0e0 6b3d 65a4 0abd cc76 d83b 2273 dabc
000003b0: b023 5bbd 8c5a 1a3d c63a 653d 1ff4 1cbd
000003c0: 2f74 d23c a217 b83c ee71 e03c 3291 203d
000003d0: 8c85 883d 9cbc 583d 7456 81bd dd77 e1bc
000003e0: 6820 1a3d 5901 24bd 54de 653c 78eb edbc
000003f0: ce09 4f3c d8e7 0f3d 17d1 b53c f892 4e3d

weight f4 [100]
0.9988305 1.0001638 1.0013701 0.9986024 1.00123 0.9988987 0.99862796 0.99864715
1.0001205 1.0011294 1.0009896 1.0013933 0.9988915 0.9990285 0.9986437 0.9988941
1.0013121 0.99861884 1.0009599 0.99900186 0.99973553 1.0011973 0.9987901 1.0009992
0.99871105 1.0012751 1.0008308 0.998591 0.9988789 0.99862057 0.99859715 0.99887574
1.0006002 0.99861175 0.99870884 0.9987637 1.001132 1.0003153 0.99888474 0.9997954
0.99899405 1.0013489 0.99870783 0.9986076 1.0012012 0.99897 1.0013348 1.0013845
0.9987975 0.9986462 1.0013884 0.9985947 0.9987841 1.0013037 0.9987237 1.0014048
0.99959016 0.9996965 1.0010983 1.0009242 0.99868536 1.0010841 1.000131 0.99894756
1.0007198 1.0012175 1.0002313 1.0013895 1.000777 0.99873906 1.0013505 0.9999459
0.9987586 1.0003473 0.99872196 1.0009613 0.9987696 0.99868083 1.0012964 1.0009104
0.9992651 0.9987761 0.99882144 0.9986706 0.99876785 0.9986934 1.0009217 1.0012819
1.000226 1.0012103 1.0000324 1.0013545 0.9986201 0.99864423 0.9986331 0.9987622
0.99887127 1.0006804 1.001403 0.9986433
00000000: 5bb3 7f3f 5e05 803f e52c 803f 68a4 7f3f
00000010: 4e28 803f d3b7 7f3f 15a6 7f3f 57a7 7f3f
00000020: f303 803f 0225 803f 6d20 803f a82d 803f
00000030: 5ab7 7f3f 55c0 7f3f 1da7 7f3f 86b7 7f3f
00000040: ff2a 803f 7ca5 7f3f 741f 803f 96be 7f3f
00000050: abee 7f3f 3c27 803f b5b0 7f3f be20 803f
00000060: 87ab 7f3f c829 803f 391b 803f a9a3 7f3f
00000070: 87b6 7f3f 99a5 7f3f 10a4 7f3f 52b6 7f3f
00000080: ab13 803f 05a5 7f3f 62ab 7f3f faae 7f3f
00000090: 1825 803f 550a 803f e9b6 7f3f 97f2 7f3f
000000a0: 13be 7f3f 332c 803f 51ab 7f3f bfa4 7f3f
000000b0: 5c27 803f 7fbc 7f3f bd2b 803f 5e2d 803f
000000c0: 31b1 7f3f 47a7 7f3f 7f2d 803f e7a3 7f3f
000000d0: 51b0 7f3f b82a 803f 5bac 7f3f 082e 803f
000000e0: 24e5 7f3f 1cec 7f3f fd23 803f 491e 803f
000000f0: d8a9 7f3f 8623 803f 4b04 803f 07bb 7f3f
00000100: 9617 803f e527 803f 9407 803f 882d 803f
00000110: 7619 803f 5dad 7f3f 412c 803f 74fc 7f3f
00000120: a5ae 7f3f 610b 803f 3eac 7f3f 801f 803f
00000130: 5daf 7f3f 8ca9 7f3f 7b2a 803f d51d 803f
00000140: d6cf 7f3f caaf 7f3f c3b2 7f3f e0a8 7f3f
00000150: 40af 7f3f 5faa 7f3f 341e 803f 012a 803f
00000160: 6807 803f a927 803f 1001 803f 622c 803f
00000170: 91a5 7f3f 26a7 7f3f 6ba6 7f3f e1ae 7f3f
00000180: 07b6 7f3f 4c16 803f f92d 803f 16a7 7f3f

bias f4 [100]
-0.00017662885 0.0021078987 0.002246931 0.0022044713 0.00220783 -9.574322e-05 -9.207864e-05 0.0021117136
-0.00021370943 -6.999023e-05 -0.00014676416 0.0021432412 -4.8392918e-05 0.0020579812 -0.00019249914 -6.6876644e-05
0.0021537442 0.0021836346 0.0021263903 -0.00015497656 -3.68279e-05 0.0021512653 -0.00022818078 0.0021236306
0.0021285177 0.0021039366 -1.3639772e-05 -0.00016190516 -0.0001294461 -0.00020438037 -0.0002056906 -0.00018113511
-8.5031934e-05 -0.00016704696 -0.0001377902 0.002083164 -9.1426715e-05 0.0021169719 -7.719561e-05 0.0018866583
-0.0001917441 0.002057282 -0.00016333078 -8.561116e-05 0.0021313361 -9.11759e-05 0.0021368302 -8.5402455e-05
0.002087931 -0.00017730438 0.0022112885 0.0021793307 0.0021389686 0.0021858453 -0.00016248156 0.0022152509
0.0022131843 -0.0001617758 -0.000123693 0.0022547208 -7.065505e-05 0.002057803 0.0022028238 -0.00013225956
-5.9959304e-05 0.0021811547 0.0021274462 -0.00019566593 0.0020457848 -0.00010895924 -0.000113787246 -0.00018928046
-0.00020709186 0.0022029015 -0.00015958803 -9.798995e-05 -0.00018208698 -5.8622914e-05 -0.00013977048 0.0021253726
0.002170036 3.0203752e-05 -0.0001538209 -8.310584e-05 0.0020668819 -6.1791914e-05 -0.00016492215 0.00217057
-8.794479e-06 0.0021825298 0.0009754606 0.0021777642 -8.544905e-05 0.0021414247 -9.721628e-05 0.0022067914
-0.00022529886 -8.805131e-05 0.0020673329 -0.00013948168
00000000: 7235 39b9 ac24 0a3b 3f41 133b e478 103b
00000010: 3eb1 103b c0c9 c8b8 581a c1b8 ad64 0a3b
00000020: 3017 60b9 b8c7 92b8 b4e4 19b9 9f75 0c3b
00000030: 80f9 4ab8 32df 063b 98d9 49b9 2040 8cb8
00000040: d525 0d3b 4f1b 0f3b e95a 0b3b 3481 22b9
00000050: a877 1ab8 3efc 0c3b d043 6fb9 9c2c 0b3b
00000060: 9a7e 0b3b 33e2 093b 60d6 64b7 16c5 29b9
00000070: ecbb 07b9 f04e 56b9 a6ae 57b9 16ef 3db9
00000080: 2c53 b2b8 5429 2fb9 c67b 10b9 b185 083b
00000090: 58bc bfb8 e5bc 0a3b 14e4 a1b8 bf49 f73a
000000a0: ea0e 49b9 77d3 063b c643 2bb9 248a b3b8
000000b0: e3ad 0b3b b035 bfb8 100a 0c3b 181a b3b8
000000c0: abd5 083b c8ea 39b9 44eb 103b 1ad3 0e3b
000000d0: f02d 0c3b 6640 0f3b d05f 2ab9 be2d 113b
000000e0: 120b 113b 5ca2 29b9 96b3 01b9 f0c3 133b
000000f0: a42c 94b8 35dc 063b 405d 103b 28af 0ab9
00000100: d07c 7bb8 b4f1 0e3b a06c 0b3b ac2b 4db9
00000110: 9312 063b 0c81 e4b8 10a1 eeb8 9679 46b9
00000120: cc26 59b9 8e5e 103b 1657 27b9 f47f cdb8
00000130: 9aee 3eb9 e0e1 75b8 5a8f 12b9 d649 0b3b
00000140: 2a37 0e3b 105e fd37 fc4a 21b9 1c49 aeb8
00000150: 8674 073b 4896 81b8 f4ee 2cb9 1f40 0e3b
00000160: 008c 13b7 c608 0f3b 0eb6 7f3a d2b8 0e3b
00000170: 1c33 b3b8 2557 0c3b 98e0 cbb8 d19f 103b
00000180: 343e 6cb9 30a8 b8b8 177c 073b d441 12b9

running_mean f4 [100]
0.062912196 0.044170707 0.06649728 0.090814024 0.089102335 0.057647355 0.09083344 0.08350943
0.05473516 0.033274837 0.058192104 0.05386825 0.044671714 0.05403288 0.046423115 0.0736298
0.04680645 0.04143191 0.045800798 0.054519698 0.0457349 0.077134416 0.04882127 0.0822517
0.10212138 0.06612238 0.089098185 0.07479277 0.09352853 0.055637687 0.06514109 0.050226603
0.08246687 0.044646658 0.05093082 0.0967073 0.120278046 0.06924265 0.06520282 0.057995684
0.06922822 0.0757454 0.096628815 0.06850553 0.070231445 0.03715252 0.07635593 0.0761983
0.09972677 0.09951343 0.053362295 0.053205434 0.056638222 0.05272433 0.093826875 0.04465832
0.060047448 0.033080563 0.05661101 0.048344932 0.06833523 0.044734098 0.071575746 0.058162577
0.036064252 0.03270661 0.044281196 0.061780296 0.07195063 0.039220948 0.06975636 0.060676917
0.05245985 0.08236343 0.0732465 0.09329891 0.035493158 0.053884596 0.048492696 0.041552346
0.05039071 0.07220569 0.06546854 0.043747067 0.04857339 0.06132576 0.08342692 0.049821112
0.05060856 0.0831183 0.042337853 0.059025377 0.04877407 0.057869025 0.054262824 0.08395092
0.044007614 0.059374847 0.062291287 0.04180751
00000000: 1cd8 803d 58ec 343d ba2f 883d b4fc b93d
00000010: 497b b63d a21f 6c3d e206 ba3d fe06 ab3d
00000020: fa31 603d 324b 083d d85a 6e3d f4a4 5c3d
00000030: b0f9 363d 9551 5d3d 2a26 3e3d 38cb 963d
00000040: 1fb8 3f3d 82b4 293d 9e99 3b3d 0c50 5f3d
00000050: 8554 3b3d a6f8 9d3d d0f8 473d 9473 a83d
00000060: 0425 d13d 2c6b 873d 1c79 b63d f42c 993d
00000070: e38b bf3d 58e4 633d b168 853d 69ba 4d3d
00000080: 64e4 a83d 6adf 363d d69c 503d 7a0e c63d
00000090: 5654 f63d 17cf 8d3d 0e89 853d e28c 6d3d
000000a0: 86c7 8d3d 6720 9b3d 54e5 c53d a14c 8c3d
000000b0: 81d5 8f3d 3e2d 183d 7f60 9c3d db0d 9c3d
000000c0: 8c3d cc3d b2cd cb3d 6c92 5a3d f1ed 593d
000000d0: 7bfd 673d 78f5 573d 4e28 c03d a4eb 363d
000000e0: 50f4 753d 7c7f 073d f2e0 673d 5605 463d
000000f0: 57f3 8b3d 1a3b 373d 4e96 923d e23b 6e3d
00000100: 1cb8 133d 5ef7 053d 3360 353d 560d 7d3d
00000110: da5a 933d 25a6 203d 6cdc 8e3d 5c88 783d
00000120: 24e0 563d 28ae a83d 4302 963d 8013 bf3d
00000130: 4661 113d 18b6 5c3d 47a0 463d cb32 2a3d
00000140: 7d66 4e3d 94e0 933d 5f14 863d 2030 333d
00000150: e4f4 463d b830 7b3d bcdb aa3d 3911 4c3d
00000160: ec4a 4f3d ed39 aa3d 756a 2d3d 98c4 713d
00000170: 52c7 473d 1208 6d3d b242 5e3d 76ee ab3d
00000180: 5441 343d 0a33 733d 2625 7f3d 5a3e 2b3d

running_var f4 [100]
0.79141176 0.7464048 0.7765067 0.765437 0.7823519 0.75959885 0.7797177 0.7859298
0.7581271 0.7366523 0.75224805 0.75489944 0.7530143 0.7502062 0.7464728 0.7885355
0.7498428 0.7451155 0.7454105 0.76042414 0.7475988 0.7738076 0.753429 0.7636459
0.7921297 0.7855443 0.77586865 0.77701515 0.815944 0.7692926 0.76808435 0.762338
0.7993629 0.7405541 0.74487346 0.79866225 0.79803884 0.7595405 0.78701735 0.7522435
0.77501464 0.78984123 0.80212915 0.7663743 0.7755414 0.7494289 0.7946287 0.7625986
0.79372436 0.8322566 0.7499772 0.7563109 0.75377107 0.75497925 0.8040676 0.7426979
0.7696128 0.73787314 0.75411034 0.7464121 0.76633495 0.74301916 0.7671587 0.772064
0.7381838 0.7394833 0.74599534 0.7729909 0.7890233 0.7396415 0.78276366 0.7570773
0.76639587 0.7764615 0.79765004 0.78786534 0.74874526 0.7533282 0.74088097 0.7553578
0.74475366 0.7875704 0.81043476 0.7423048 0.74092835 0.755246 0.7744144 0.77324605
0.74276924 0.77760345 0.75026524 0.7549995 0.74350125 0.7507742 0.7472988 0.78016585
0.75339156 0.7687666 0.77614284 0.7559147
00000000: f699 4a3f 6314 3f3f 25c9 463f aef3 433f
00000010: 3748 483f 1275 423f 949b 473f b232 493f
00000020: 9e14 423f 3f95 3c3f 5493 403f 1741 413f
00000030: 8cc5 403f 830d 403f d718 3f3f 76dd 493f
00000040: b3f5 3f3f e4bf 3e3f 39d3 3e3f 28ab 423f
00000050: a362 3f3f 4118 463f b9e0 403f 4c7e 433f
00000060: 03c9 4a3f 6e19 493f 549f 463f 77ea 463f
00000070: b5e1 503f 5cf0 443f 2da1 443f 9528 433f
00000080: 0ca3 4c3f f494 3d3f 07b0 3e3f 2175 4c3f
00000090: 464c 4c3f 3f71 423f f879 493f 0893 403f
000000a0: 5c67 463f 0933 4a3f 5658 4d3f 1b31 443f
000000b0: e289 463f 93da 3f3f c96c 4b3f a939 433f
000000c0: 8531 4b3f c50e 553f 81fe 3f3f 979d 413f
000000d0: 24f7 403f 5246 413f 60d7 4d3f 7321 3e3f
000000e0: 5805 453f 41e5 3c3f 600d 413f dd14 3f3f
000000f0: 872e 443f 8136 3e3f 8364 443f fca5 453f
00000100: 9df9 3c3f c74e 3d3f 8df9 3e3f bbe2 453f
00000110: 6efd 493f 2559 3d3f 3363 483f d1cf 413f
00000120: 8532 443f 2ec6 463f cb32 4c3f 8bb1 493f
00000130: c5ad 3f3f 1eda 403f 60aa 3d3f 215f 413f
00000140: 2da8 3e3f 379e 493f a778 4f3f b007 3e3f
00000150: 7bad 3d3f cd57 413f 0640 463f 74f3 453f
00000160: 2026 3e3f 0511 473f 6211 403f a647 413f
00000170: 1956 3e3f bd32 403f f94e 3f3f f3b8 473f
00000180: 45de 403f e3cd 443f 4cb1 463f a083 413f
