AutogluonModels/ag-20230914_040803/models/NeuralNetFastAI_BAG_L1/S1F2model-internals.pkl (torch, 138528 bytes, 17 tensors)

weight f4 [22, 9]
000000 c2 72 22 3d b7 e9 87 3d 2e 23 3b bd c3 cc 7c bd
       0.039660223 0.066363744 -0.045687847 -0.061718713
000010 4e 5a b1 3d 78 49 99 3b 46 c3 b2 bd 9f d2 95 3d
       0.086598024 0.0046779476 -0.08728652 0.073155634
000020 0a 3d 92 bd 7e 95 90 ba 8b bb 86 bb 30 9c 84 bd
       -0.071405485 -0.001103088 -0.0041117123 -0.06475103
000030 fa d4 44 bc 39 14 f7 bc 87 ef 94 bc f8 90 39 39
       -0.012013668 -0.03016101 -0.018180622 0.0001769698
000040 f0 22 03 3c 3d c2 9f bc aa ac 3e 3d bc 23 b1 3d
       0.008003935 -0.0195018 0.046551384 0.08649394
000050 d1 51 63 bd 6d 6b 6d bd ea 0e bc 3a 1c 81 47 bc
       -0.055497948 -0.057963777 0.0014347706 -0.012176778
000060 67 70 81 bd ba 10 84 3c 99 8b 61 bd 5e 2c 88 3c
       -0.06320267 0.016121257 -0.05506477 0.016622718
000070 67 4d ea bc 6d ee 38 3d 0f 0a 68 3d c9 b1 c0 3d
       -0.028601361 0.045149256 0.056650218 0.0940891
000080 f8 67 a6 3d 81 c3 45 3d 5c 83 50 bb 4b 23 23 3d
       0.08125299 0.04828215 -0.0031816578 0.03982858
000090 4b eb 33 3d d1 99 19 3d 05 dc 72 3c 21 2d ca 3b
       0.043925565 0.037500206 0.014822965 0.0061699306
0000a0 bc 66 98 bc f1 e0 a2 3d bb 28 64 bd a0 5e 85 ba
       -0.018603675 0.079530604 -0.055702906 -0.0010175295
0000b0 82 57 74 bb a4 a5 74 bc c3 23 df bc ac 2f b8 bc
       -0.0037283604 -0.01493207 -0.027238732 -0.02248367
0000c0 61 bf 08 3d 6a b8 c9 3b 0f 20 64 3d 2e 79 70 3d
       0.03338564 0.006156017 0.055694636 0.058709316
0000d0 90 80 5f 3c e8 02 c6 3c 18 f1 80 bc 32 a8 82 bd
       0.0136414915 0.024171308 -0.015739962 -0.06379737
0000e0 d2 6e 0b 3d 44 9d 6c 3d cd ef 7b bd 84 48 88 3d
       0.034041233 0.057767168 -0.06150799 0.06654456
0000f0 ba 17 5b 3d db 2f 06 bd 7a d5 96 3d 18 b7 f0 3c
       0.053489424 -0.032760482 0.07364936 0.02938418
000100 30 af 24 bd 57 71 20 3c 26 46 f4 3c 25 79 5a 3d
       -0.040206134 0.009792647 0.029818606 0.05333819
000110 12 71 5b 3d 5b c2 2f bc b3 cb 95 bb 8f 0e 8b 3a
       0.05357463 -0.01072749 -0.004571402 0.0010609197
000120 83 39 67 bc 6c 03 49 bd 05 9e 85 3d ea 2b 53 3d
       -0.014112833 -0.04907553 0.065242805 0.05155555
000130 8b 7a 99 3d 53 30 3f 3d 77 1c 0b 3d 1c 8d 16 bc
       0.07494076 0.046676945 0.033962693 -0.0091889165
000140 62 fb 61 3d 18 b0 bb bd 54 6a 9f bd 05 45 9d 3d
       0.055171378 -0.091644466 -0.07783952 0.0767918
000150 58 4c 08 3d d0 43 7c bd df 1a 77 bd 83 3f 63 3d
       0.033275932 -0.06158811 -0.06032836 0.05548049
000160 84 77 3f bd e9 e3 9a 3d 22 2b 1f bc 98 25 2b bd
       -0.04674484 0.07563002 -0.0097148735 -0.0417839
000170 52 46 6d 3c f4 2d d9 3c 21 20 c1 bd 7e 71 7f 3d
       0.014482098 0.02651117 -0.09429956 0.062364094
000180 db d1 72 3d 4a c9 f7 bc 39 ff cf bc 88 06 a5 3c
       0.059282165 -0.03024735 -0.025390254 0.020144716
000190 f1 46 5c 3d 97 5a 31 bd 75 37 31 bd ba 90 53 bc
       0.053778592 -0.043299284 -0.04326578 -0.0129129235
0001a0 18 90 89 bd 57 67 16 bd d2 33 7e bc 2e f6 a1 bc
       -0.06716937 -0.036719646 -0.015515285 -0.019770708
0001b0 ea 75 74 bc 12 5f 77 bb 18 6e 6d bd 86 fe 9a bd
       -0.014920691 -0.0037745875 -0.05796632 -0.07568078
0001c0 1e 15 0c 3d 19 d5 2c bd 66 16 12 bd 45 6c 62 3d
       0.034199826 -0.042195413 -0.035665892 0.055279035
0001d0 58 9d 18 bd 89 df 1f bd 11 09 f5 bc a0 ea 1a 3b
       -0.03725943 -0.03903154 -0.02991155 0.0023638383
0001e0 28 5a d5 bc 52 a9 d2 bc 42 b1 61 bd aa a4 10 bc
       -0.026043966 -0.025715504 -0.055100687 -0.0088283215
0001f0 2c 20 0c bd be 9f 41 bc 7d e5 8a 3d c8 d3 ed 3d
       -0.03421037 -0.011817871 0.06782053 0.1161266
000200 ad c6 e3 bd e4 de a6 bd c6 43 8a 3c d2 c0 e4 bc
       -0.11121879 -0.08147982 0.01687802 -0.027923975
000210 2e 81 d4 bd 45 a9 7a 3d ca d4 9b bd 7f db 5c 3d
       -0.103762016 0.061196584 -0.07608946 0.053920265
000220 30 0e e2 3d e1 bd 3b bd c6 d9 4a bd f9 2e 45 3d
       0.11037862 -0.04583538 -0.04952409 0.0481405
000230 6e 66 b1 bd f4 db c2 bd 35 27 62 3d 9b 34 b8 bd
       -0.08662115 -0.09514609 0.055213172 -0.08994409
000240 d9 4e 8c bd 58 29 cc bd 91 00 de 3d 87 cf f1 3d
       -0.068509765 -0.09968823 0.10839952 0.11807161
000250 a2 c5 49 bd 0d 45 d4 3d 70 d8 01 3e d1 cf bf bd
       -0.049260743 0.10364733 0.1268022 -0.0936581
000260 6e 29 c4 3d 3d f8 d9 bd ae b7 95 bd 99 d1 99 3d
       0.095782146 -0.10643051 -0.07310425 0.07510681
000270 a8 6e c8 3d 6f bc ca bc d7 8f d4 3c a0 9d a9 3d
       0.09786731 -0.024748055 0.025947494 0.08282018
000280 cb 29 60 bd 1a 0e a8 3d 3e f7 cc bd 40 e9 a9 bd
       -0.054727357 0.08205815 -0.10008095 -0.08296442
000290 8d a3 1e 3d b2 54 8a 3d a7 d6 e2 3a a8 86 3e bd
       0.038730193 0.067544356 0.0017306403 -0.046515137
0002a0 db 76 91 3d c5 78 f8 bc 6a 65 eb 3b 0e 13 2e bd
       0.07102748 -0.030331025 0.0071837204 -0.04249864
0002b0 7c 72 44 3d 32 03 d8 bd 19 11 be bd a1 64 99 3b
       0.047960743 -0.105474845 -0.09280605 0.0046811854
0002c0 21 8a f1 bd d3 e9 a4 bd 12 22 46 3d c8 c8 a6 bd
       -0.11793924 -0.08052411 0.048372336 -0.08143765
0002d0 72 a0 0c 3d 26 b1 f9 3d f6 8d 93 bd a2 43 aa bd
       0.0343327 0.121919915 -0.07204811 -0.08313681
0002e0 4c 9b a8 3d ef 0d 05 be 73 4b d1 bd ee a5 c0 3d
       0.082327455 -0.12993596 -0.10219469 0.094066486
0002f0 29 b4 bd bd 08 59 4a 3d 3e fb c3 bd f6 23 77 3d
       -0.092628784 0.049401313 -0.09569405 0.06033703
000300 cd 8e 17 3c ba 48 c4 bd 85 f6 19 3d 52 1c e3 3c
       0.009250355 -0.09584184 0.037588615 0.027723465
000310 17 4b b4 bd 2c 47 bc 3d
       -0.08803385 0.091932625

weight f4 [3]
000000 c9 31 7d 3f 7a 54 83 3f e7 22 73 3f
       0.9890409 1.0260155 0.9497513

bias f4 [3]
000000 9d 45 bf bc 30 71 fb 3b ea 50 4d 3d
       -0.023348624 0.007673405 0.050125994

running_mean f4 [3]
000000 7c b6 1c ba 7a 2d f9 3a 19 63 17 3b
       -0.000597812 0.0019010745 0.0023099838

running_var f4 [3]
000000 51 ff 7f 3f 27 1f 80 3f fc f5 7e 3f
       0.99998957 1.0009507 0.9959409

weight f4 [200, 12]
000000 f2 ae b7 bd de 0f f0 3c 4c be 3f be f4 ba 0b 3e
       -0.08968915 0.029304441 -0.18724936 0.13645536
000010 66 8e 42 3e fa 13 80 3c c4 ce 1f be 25 6b 2d be
       0.18999633 0.015634526 -0.15606219 -0.16935404
000020 49 c1 05 3e 56 d6 2b be 57 9d 0c 3e ed 17 97 be
       0.13062014 -0.16780981 0.13731895 -0.2951044
000030 07 90 8e be 5a 5f bd be 33 a9 ff 3c 73 1a 8e 3e
       -0.2784426 -0.3698681 0.03120861 0.27754554
000040 64 01 9a be fc 87 a6 3e 01 1f a1 bc 78 5a dc b9
       -0.30079186 0.32525623 -0.019668104 -0.00042029074
000050 cf d8 bf 3d af 82 92 be f7 e0 61 3e 57 e2 11 3e
       0.09367525 -0.2861533 0.22058474 0.14246498
000060 01 3f 66 3e 4b 3c b8 3d 2b bc 08 be 8d 19 8f 3e
       0.22484972 0.08995875 -0.1335303 0.2794918
000070 a5 e1 81 3d 80 0d 52 3e 41 09 28 be df 8e db bd
       0.063418664 0.20512962 -0.1640978 -0.1072061
000080 a6 72 64 be 7c 60 03 be 74 31 a1 3d 2d 8f 5b be
       -0.2230936 -0.12829775 0.078707606 -0.21441336
000090 b5 39 fa 3d 13 13 99 3d 5e 17 0f 3e 94 a3 e8 bd
       0.12218038 0.07474341 0.13973758 -0.11359325
0000a0 d3 64 89 be d9 81 1d 3c ab af 55 3e de 75 4d 3e
       -0.26834735 0.009613478 0.20867793 0.20064494
0000b0 f1 eb 86 3e 8b 43 07 bd 25 a7 fa 3d 3c 61 89 be
       0.26351884 -0.0330234 0.122389115 -0.26831996
0000c0 07 39 86 be 2b 2c 66 3e f9 2d 89 be 7b f3 93 3d
       -0.26215383 0.22477786 -0.26792887 0.072241746
0000d0 d4 d1 3f be ef 60 88 be 13 62 a7 be fe 6d 7d 3e
       -0.18732387 -0.26636454 -0.32692012 0.2474899
0000e0 00 86 12 be cf 4c 82 3e b7 7b 12 3e 91 72 04 3e
       -0.1430893 0.25449225 0.14305006 0.12934329
0000f0 b2 08 a4 3c 9b 25 f4 bd 95 f1 e1 bb 34 da 25 3d
       0.020023677 -0.11921235 -0.006895254 0.040491298
000100 98 9d 11 3e 34 18 6c be 22 87 81 3e f0 67 b1 bb
       0.14220273 -0.23056108 0.2529841 -0.0054140016
000110 54 1a 6a be a2 8c 27 be 3c 26 8a 3e 14 72 7e 3e
       -0.22861606 -0.16362241 0.26982296 0.24848205
000120 cb 6a 91 be b8 c1 81 3e 28 6a 89 3d e3 6e af 3d
       -0.2840179 0.25343108 0.06709701 0.08566072
000130 5f 23 93 3e 66 e0 5a be 8d 5e f2 3c 2b b4 26 3e
       0.28737924 -0.21374664 0.029586101 0.16279666
000140 32 10 1d be 2f 2b d6 3d 24 d5 c5 bd dd ec 27 3e
       -0.1533821 0.10457455 -0.09659794 0.1639895
000150 4f 96 18 be 43 65 56 be 1a 7c 50 3e c6 72 6a 3e
       -0.14901088 -0.20937066 0.20359841 0.22895345
000160 73 3a c3 bd 9b 34 30 3e b7 dd 8c 3e 8d e2 d9 bd
       -0.09532633 0.17207567 0.27512905 -0.10638914
000170 7d 1a 2e 3e 91 c5 83 bd 41 6f e5 3d fd bb 44 be
       0.17002292 -0.06434167 0.112028606 -0.19212337
000180 25 91 80 be 76 22 21 be 57 77 92 3e a2 26 87 bd
       -0.25110736 -0.15735802 0.28606674 -0.065991655
000190 6a 7d 3c 3d 25 28 2c be 0f 76 95 3e 35 c2 83 3e
       0.04601804 -0.16812189 0.29191634 0.25734106
0001a0 ff c1 2f be 1c 59 24 be 23 7d 91 be 09 46 52 3c
       -0.17163847 -0.16049618 -0.28415784 0.0128340805
0001b0 4c 92 b9 bd 7c 96 b5 bd 81 e5 4b be 49 88 8f bd
       -0.09061107 -0.08866593 -0.19911768 -0.07008416
0001c0 bc 7c d4 bd f2 95 0f 3c 9f 56 39 be 95 05 33 bd
       -0.10375354 0.008763777 -0.1809945 -0.043706495
0001d0 8b 23 85 bd 20 68 82 3e 07 32 3d be 8b 0c 79 3c
       -0.0650092 0.25470066 -0.18476115 0.015200744
0001e0 68 c1 47 be 03 56 a9 3e c7 cb b4 be 29 03 9b be
       -0.19507372 0.33073434 -0.3531172 -0.30275849
0001f0 03 25 73 3e 5a 03 7f be cc 71 d6 3c 27 07 d6 3c
       0.23744588 -0.24903622 0.02617731 0.026126457
000200 6b 86 0c be e1 11 7f bd fa f0 36 3e 26 60 a5 bb
       -0.13723151 -0.06227291 0.17865363 -0.005046862
000210 69 98 85 be dd 33 ee bd 38 de 29 be 29 ac cf 3d
       -0.26092842 -0.11630986 -0.16588676 0.10140259
000220 32 b1 54 be dc eb 61 3e ee 43 dc bd 50 ba 8c bc
       -0.2077072 0.2206263 -0.10755144 -0.017178684
000230 be 16 17 3e ef b6 13 3e e7 65 80 3e 6c 6a 2c 3e
       0.14754769 0.14425252 0.25077745 0.16837472
000240 98 41 1b be 87 ae 88 be cf 6b c8 3c 75 d2 79 3e
       -0.15161741 -0.26695654 0.02446547 0.24396689
000250 c2 f4 11 be a4 61 aa be 44 b3 30 3e 4b 6c 7d 3e
       -0.14253524 -0.3327762 0.17255884 0.24748342
000260 47 af 75 bc 02 2c 57 be 7b e9 90 be 50 41 89 3d
       -0.014995403 -0.21012881 -0.2830313 0.067019105
000270 81 aa 3f 3d 0c 4a 55 be e8 ca 1d 3e 61 53 49 3e
       0.046793465 -0.20829028 0.15409434 0.19660713
000280 16 ce 90 3e 2e 32 b1 3e 1f 75 0d 3d b7 3b ad be
       0.2828223 0.34608597 0.034535524 -0.3383462
000290 bd 1f 39 be 80 5e 6f 3e db 4a fa 3d e3 ea 2a 3e
       -0.18078513 0.23375893 0.12221309 0.16691165
0002a0 58 b9 73 be 44 2b 86 3e 24 59 a4 3e 80 b5 98 3e
       -0.23801172 0.26204884 0.3209926 0.29825974
0002b0 12 f2 6c be b0 f5 63 bd 53 b4 42 be 24 c0 8b 3e
       -0.23139217 -0.055654228 -0.190141 0.2729503
0002c0 94 0f c0 bd dd c9 29 be 22 2f 18 3e 8a 67 da bd
       -0.09377971 -0.16580911 0.1486173 -0.1066428
0002d0 27 2d 2b be 8d 54 fc bd 33 ca 79 3d 3a 6c 08 be
       -0.16716443 -0.12320814 0.060983848 -0.13322535
0002e0 12 9f 7c 3e cb 79 4e bd 8f 52 5c 3e 84 95 2b 3e
       0.24670056 -0.05040912 0.21515869 0.16756254
0002f0 86 43 74 3e 8c c1 f7 3c ec cb 82 3e 2c 4a 0a 3d
       0.23853883 0.030243658 0.25546205 0.033762142
000300 c3 ad 3d be 2f b6 a2 3e 4d 25 43 bd 11 5d b2 be
       -0.18523316 0.3177962 -0.047642995 -0.3483663
000310 48 36 31 be 21 88 99 be 91 03 3d 3e 36 71 94 bb
       -0.17305863 -0.2998667 0.18458392 -0.0045300974
000320 5e 58 b3 be 2d c6 b2 bc fe 3b 3f 3e 07 5c 61 3d
       -0.35028356 -0.021823013 0.18675229 0.055019405
000330 bc 04 df 3d c6 48 df 3d 18 62 40 bb 0c 94 10 be
       0.10889575 0.10902552 -0.0029355343 -0.14118975
000340 c8 d1 31 be 65 16 cb be 70 51 a1 be 11 a8 5c 3e
       -0.17365181 -0.39665523 -0.31507444 0.21548487
000350 a3 6b 7c be ad 7c 06 3d 5d 50 82 3d 8d 7b cc 3c
       -0.24650435 0.032833744 0.06362984 0.024961257
000360 a5 2c e8 bd bf f6 89 3e e0 0a 35 be 16 2d 41 3e
       -0.1133664 0.26946065 -0.1767993 0.18864855
000370 18 af 8d be 9f bb 57 bd d5 85 e1 3d 5e 7f 1b be
       -0.27672648 -0.052669164 0.110118546 -0.15185305
000380 c5 35 96 3e fb 1e 34 be 49 8c 83 be 4a c3 14 be
       0.29337898 -0.17589943 -0.25692967 -0.14527622
000390 3c df 21 3c 4b e1 93 3e d2 2c 23 be 86 57 24 3d
       0.009879883 0.28882822 -0.15935066 0.04012253
0003a0 84 56 c4 bd b6 64 18 be ee e4 19 3e bd 32 24 be
       -0.09586814 -0.14882168 0.15028736 -0.1603498
0003b0 e4 39 80 bb 16 5d 8f 3e 1a 36 1d bd 0e b2 5e 3e
       -0.003913151 0.28000706 -0.038381673 0.2174761
0003c0 3a e3 e2 bd c5 1f 9e 3e 86 e6 c5 be 13 cf 05 be
       -0.11078496 0.30883613 -0.38652438 -0.13067274
0003d0 c6 89 9e bd 06 2d 5e bc 28 f3 1b 3d 5c b5 82 3e
       -0.07741122 -0.013560539 0.03807369 0.2552899
0003e0 c8 67 0d be ef 16 e4 bc d0 56 46 3e 2c 5f 80 bd
       -0.1380912 -0.027842967 0.19369054 -0.062681526
0003f0 12 af a5 3e 41 ac 8e be 84 69 8c 3d dc fb ac 3d
       0.3236013 -0.27865794 0.06856063 0.08446476

weight f4 [200]
000000 27 8d 7e 3f 8a 84 7d 3f df 2c 80 3f 02 5a 79 3f
       0.9943413 0.99030364 1.0013694 0.97402966
000010 43 b6 81 3f 00 3d 81 3f 87 8b 7d 3f be aa 85 3f
       1.0133747 1.0096741 0.99041027 1.0442731
000020 19 db 7c 3f 38 35 80 3f 12 b4 7b 3f 65 f3 78 3f
       0.98771816 1.0016241 0.9832164 0.9724639
000030 c2 2c 85 3f 38 71 7f 3f 05 93 78 3f 3a 9c 7e 3f
       1.0404284 0.99782133 0.97099334 0.9945713
000040 5d e0 81 3f 09 5b 81 3f c8 c6 81 3f 03 24 79 3f
       1.0146595 1.0105907 1.0138788 0.97320575
000050 bd dd 7b 3f 84 c5 85 3f 6f 2c 82 3f a7 21 7b 3f
       0.9838522 1.0450902 1.016981 0.98098224
000060 6a 87 7e 3f 92 47 73 3f b4 c4 83 3f f1 65 82 3f
       0.99425375 0.9503108 1.0294404 1.018736
000070 59 c8 81 3f c4 82 7e 3f 7e 27 81 3f cc 52 80 3f
       1.0139266 0.9941828 1.0090177 1.0025268
000080 4c aa 81 3f e8 32 78 3f 6e 1b 83 3f 69 2a 7f 3f
       1.0130095 0.96952677 1.0242746 0.9967409
000090 07 70 78 3f 26 b9 7d 3f 64 b5 80 3f 8a 01 7f 3f
       0.9704594 0.9911064 1.0055356 0.99611723
0000a0 a1 7d 83 3f b8 89 7d 3f 3c 3b 7d 3f 53 5e 77 3f
       1.0272714 0.9903827 0.9891851 0.966283
0000b0 db 93 7f 3f 71 5f 7c 3f fd d6 7d 3f 30 54 7f 3f
       0.99834985 0.9858313 0.9915617 0.99737835
0000c0 6a 3c 80 3f d4 b4 80 3f b9 c1 81 3f 37 2c 82 3f
       1.0018437 1.0055184 1.0137244 1.0169743
0000d0 8f 1d 7e 3f 70 6f 7f 3f 12 b4 82 3f f2 10 81 3f
       0.9926385 0.99779415 1.0211203 1.0083296
0000e0 e9 79 7f 3f 4a e9 81 3f dd 88 80 3f 10 1c 7c 3f
       0.99795395 1.0149319 1.0041767 0.9848032
0000f0 56 4d 7c 3f 10 b5 78 3f c7 4a 80 3f fa 1c 7a 3f
       0.98555505 0.9715128 1.002282 0.97700465
000100 78 9b 7f 3f 15 e3 7b 3f 03 c3 81 3f c5 e1 7f 3f
       0.998466 0.98393375 1.0137638 0.9995387
000110 89 68 7b 3f 8f 65 81 3f 9b 11 7e 3f ba 43 81 3f
       0.98206383 1.0109118 0.99245614 1.0098794
000120 77 ff 7e 3f 19 6a 80 3f e6 57 7b 3f 31 0a 80 3f
       0.9960856 1.0032378 0.98181 1.000311
000130 a1 42 81 3f a4 67 7d 3f de ef 7c 3f 85 42 7e 3f
       1.0098459 0.9898627 0.9880351 0.9932025
000140 7b 20 80 3f e6 5e 81 3f 29 d8 7c 3f bb 1f 81 3f
       1.0009912 1.0107086 0.98767334 1.0087808
000150 00 5e 81 3f 2d c6 80 3f 97 5c 81 3f 73 de 74 3f
       1.0106812 1.0060478 1.0106381 0.9565193
000160 0a 44 7f 3f a6 fc 7f 3f ae 86 7c 3f 0d fb 82 3f
       0.99713194 0.99994886 0.98643005 1.0232865
000170 a4 ae 80 3f 00 30 7d 3f 96 e2 7d 3f c8 0b 78 3f
       1.0053296 0.9890137 0.9917387 0.96892977
000180 be 6f 7b 3f ea a4 81 3f f5 2c 7d 3f 0e b2 81 3f
       0.9821738 1.0128453 0.98896724 1.0132463
000190 dd ee 82 3f 79 4d 80 3f dd e3 80 3f 32 77 7e 3f
       1.0229145 1.0023643 1.0069538 0.9940063
0001a0 e7 f9 7b 3f 2d 63 7f 3f 63 21 7a 3f f4 69 81 3f
       0.98428196 0.99760705 0.97707194 1.0110459
0001b0 b2 9e 7c 3f 17 80 7d 3f 9b c7 80 3f 34 9e 7f 3f
       0.9867965 0.99023575 1.0060915 0.99850774
0001c0 75 b3 80 3f c8 ec 81 3f 42 c2 80 3f a6 6e 76 3f
       1.0054766 1.0150385 1.0059283 0.96262586
0001d0 e0 01 80 3f 2d 4d 7d 3f a1 df 80 3f ac d2 80 3f
       1.0000572 0.98945886 1.0068246 1.0064292
0001e0 d6 91 80 3f 4e 92 7e 3f 5b cc 7d 3f 92 fb 81 3f
       1.0044506 0.99441993 0.99139947 1.0154898
0001f0 60 50 81 3f a7 8c 7f 3f 82 fe 7f 3f 3c ba 7d 3f
       1.0102654 0.99823993 0.99997723 0.99112296
000200 3d 50 7c 3f 72 f2 81 3f e0 cd 7f 3f 74 b7 7d 3f
       0.98559934 1.0152113 0.99923515 0.9910805
000210 50 fd 7e 3f 15 1a 82 3f a8 2e 7b 3f 6e 88 7a 3f
       0.99605274 1.016421 0.98118067 0.97864425
000220 e6 62 7c 3f eb 22 7d 3f 4b 7d 7e 3f f3 c1 81 3f
       0.9858841 0.98881406 0.9940993 1.0137314
000230 6d ad 80 3f 23 f4 7d 3f 6f af 81 3f 9b e0 82 3f
       1.0052925 0.9920065 1.0131663 1.0224794
000240 99 56 7a 3f 20 be 81 3f 1a 43 82 3f e3 ef 7f 3f
       0.9778839 1.0136147 1.0176728 0.99975413
000250 ff 7c 7e 3f 4f 65 81 3f d5 3e 7f 3f 84 60 72 3f
       0.9940948 1.0109042 0.9970525 0.9467852
000260 c2 a4 82 3f 8b 6e 7e 3f 8a 77 81 3f 40 1f 81 3f
       1.020653 0.99387425 1.0114605 1.0087662
000270 8f d0 81 3f 22 14 81 3f 99 bd 81 3f 63 c2 7e 3f
       1.0141772 1.0084269 1.0135986 0.9951536
000280 e7 7f 81 3f 35 46 81 3f c7 f0 7a 3f ec b2 7d 3f
       1.0117158 1.009955 0.9802365 0.9910114
000290 ab 52 77 3f 43 f6 82 3f ef 98 84 3f 47 5c 7e 3f
       0.96610516 1.0231403 1.0359172 0.99359554
0002a0 83 f9 82 3f da 1b 82 3f 35 78 80 3f c7 81 7f 3f
       1.0232395 1.016475 1.0036684 0.998074
0002b0 fa 62 85 3f 5a 52 7c 3f c1 0e 80 3f 81 39 77 3f
       1.042083 0.9856316 1.0004503 0.9657212
0002c0 79 0e 7d 3f 21 5f 7f 3f 3c f4 86 3f b0 51 7e 3f
       0.9885021 0.9975453 1.0543284 0.99343395
0002d0 89 8a 81 3f 99 c9 83 3f 07 90 83 3f b3 c2 81 3f
       1.0120403 1.0295898 1.0278329 1.0137542
0002e0 31 7d 82 3f 2f 4e 80 3f da 15 7e 3f 02 0c 7b 3f
       1.0194455 1.002386 0.9925209 0.980652
0002f0 76 90 7c 3f 13 62 80 3f c0 fa 85 3f 95 5a 7b 3f
       0.9865793 1.002993 1.0467148 0.9818509
000300 26 11 82 3f 63 d0 80 3f 9f 97 7a 3f 8c 0b 7d 3f
       1.0161483 1.0063595 0.97887605 0.98845744
000310 e4 31 7d 3f d0 2f 81 3f bc a6 80 3f 8c ec 81 3f
       0.9890425 1.0092716 1.0050883 1.0150313

bias f4 [200]
000000 22 6a 8f 3c aa 4d b9 3b cb f9 1c bd bd a5 d7 3c
       0.017506663 0.00565501 -0.03832416 0.026324147
000010 6c b6 5b bd 30 ed 1a 3a 13 16 e8 bb b2 4c f9 bb
       -0.053640768 0.00059099775 -0.0070827096 -0.0076080197
000020 17 31 30 3d 6a 56 a7 b9 8e f9 05 3c 0e d8 13 bd
       0.043015566 -0.00031917106 0.008177174 -0.036094718
000030 c2 b2 2b 3d 61 fb e6 bc 9c 25 81 3b 86 9f 9f 3c
       0.041918524 -0.028196039 0.003941251 0.019485246
000040 97 04 42 bc 3f 2e 38 bb 54 26 5c ba 83 d9 da 3c
       -0.011841915 -0.0028103737 -0.00083980453 0.026715046
000050 73 5d 35 3c 52 c0 97 bd 7b 53 a2 bc ba bd 26 bd
       0.011069643 -0.07409729 -0.019815197 -0.04070828
000060 1d 7a 08 ba e0 b0 1e bc 72 a3 bf 3c ac 37 21 3d
       -0.00052061846 -0.009685725 0.023393366 0.039359733
000070 a7 df 83 bd c6 b0 e4 bb cf 5b b0 bc 8e 29 f3 3c
       -0.06439143 -0.006979081 -0.021528153 0.0296829
000080 fe bc 22 3d 88 bf a8 bb 00 ec 2d bb 6b e8 5e bc
       0.03973102 -0.0051497854 -0.0026538372 -0.013605217
000090 e0 fe 84 ba 0c 1b 7d bc 46 73 cb 3c eb 06 00 3b
       -0.001014676 -0.015448343 0.02483524 0.0019535373
0000a0 80 f9 1c 3c 40 7f 3e bc 27 68 ce 3b a6 85 bb ba
       0.00958097 -0.011627018 0.006299037 -0.0014306798
0000b0 60 15 1a 3c 6a 91 7c ba 7c fa 07 bc a5 f3 b8 bb
       0.00940451 -0.00096347055 -0.008299466 -0.005644279
0000c0 78 f8 fe 3c 1d 39 0e bc 2a 61 5d bd aa 32 a1 3c
       0.031124339 -0.008680609 -0.05404774 0.019677479
0000d0 8f 9d 76 3b b9 21 62 bc 88 0b aa bc d7 e2 db bb
       0.0037630533 -0.013801985 -0.020757452 -0.006710391
0000e0 d9 32 ca bb 1b 3c b6 bb 36 e0 8e 3a 8b 79 eb bc
       -0.0061706123 -0.0055613643 0.001090056 -0.02874448
0000f0 9c 0b 4f 3b f8 fb cb 3c 32 78 14 3d 10 5e 98 bb
       0.0031592613 0.024900422 0.03624744 -0.004649885
000100 f2 5f f4 3c fa 60 4d 3c e2 fd ce bb 8e a3 d3 3c
       0.029830907 0.012535328 -0.0063168863 0.025834825
000110 7e 50 34 bd e4 03 24 3c 08 73 83 3d ba 37 87 3b
       -0.044022076 0.010010693 0.06418425 0.004126516
000120 f4 4f ad 3b 92 19 a0 3b 5a 2f 6e 3c be a2 1b bb
       0.005289072 0.0048858607 0.014537657 -0.0023748125
000130 ca b2 36 bc 97 9e e7 3a 7d 2f 08 3d 6c e9 2c 3c
       -0.011151025 0.0017671165 0.033248413 0.010553699
000140 40 47 52 3c f1 78 c7 bc 6d a5 2e bd 55 76 b0 bc
       0.01283437 -0.024349662 -0.04263823 -0.0215408
000150 63 37 6a 3d c2 5a 7b 3c 32 ce 42 bc 09 46 84 3c
       0.057181727 0.015341463 -0.011889981 0.016146677
000160 24 10 3a 3c 5f 1c b3 bc 63 1d 16 3c 06 5a c9 bc
       0.011356387 -0.021864114 0.00916228 -0.02457906
000170 4d de 23 3c 9d 6f 50 bd 1d 5e c1 bc d9 6e 9a bc
       0.010001731 -0.050887693 -0.023604447 -0.018851684
000180 bb 28 87 3c 9b ab b2 bc 4a a1 16 bd 67 44 b3 bb
       0.016498914 -0.021810343 -0.03677491 -0.0054708007
000190 be 3b 06 3b 2b 80 11 3c 6f 5a f0 bc 76 78 05 3d
       0.0020482386 0.008880655 -0.029339997 0.032585584
0001a0 9f e1 00 bd dc 52 a9 3c ab 07 30 bc 87 30 55 bd
       -0.03146517 0.020669393 -0.010744016 -0.052048232
0001b0 85 bb 48 bc 93 43 6b bc d2 68 ec 3c 96 e2 e5 3b
       -0.012251739 -0.014359373 0.028858576 0.0070155365
0001c0 4d 35 80 bc bd 4d c3 bb 08 f5 33 bc a7 d3 b8 3c
       -0.015650416 -0.005960195 -0.010983713 0.022561861
0001d0 9c f9 3a 3c e5 bc d7 3c 2a fa 10 bb 04 af 01 3d
       0.011412051 0.02633519 -0.0022121766 0.03166105
0001e0 76 36 ad bc c6 e9 83 3a cf 1b 69 bc 9e ff 89 3b
       -0.021144133 0.0010064177 -0.0142278215 0.00421138
0001f0 0a 36 1f bc 80 04 83 bc bd a3 3c 3c 3c 80 0e 3d
       -0.009717474 -0.015993357 0.011513648 0.034790263
000200 44 4e c4 bc 23 d8 97 bb 52 8c c2 3a 81 ca c0 3b
       -0.023963101 -0.00463392 0.0014842844 0.0058835153
000210 21 44 8e ba f7 5b b8 3c 0f ee b1 3c e6 c8 07 bc
       -0.0010854044 0.02250479 0.02171996 -0.008287644
000220 fe 74 32 3b 03 ff 37 bc 93 93 dc bc bd 18 c0 bb
       0.0027230377 -0.011230233 -0.026925838 -0.005862324
000230 57 72 35 bd 2c 57 bb bc 06 0d b9 3b 48 f8 b8 bb
       -0.044298496 -0.022868715 0.0056473045 -0.005644832
000240 12 e2 3b bb ce 31 7f bc 51 b8 99 3c e3 39 27 bc
       -0.0028668684 -0.015575839 0.018764647 -0.010206672
000250 3d f9 e6 3c 0a 83 eb bc 1e 16 79 3b a2 bd 0a bc
       0.028195018 -0.028749008 0.0038007568 -0.008468064
000260 c4 b3 0e bd ae 30 76 bb e0 a4 02 bd b6 8d 13 bc
       -0.034839407 -0.0037565636 -0.03189552 -0.0090059545
000270 24 6c fe bc 6c 5e 65 bc c1 c5 25 bc d7 70 55 3c
       -0.031057425 -0.013999563 -0.010117949 0.013027391
000280 20 00 0d bd 11 15 81 3c 4d eb 07 bc 31 2c e1 bc
       -0.034423947 0.015757116 -0.008295846 -0.027486892
000290 ae 1d 2f 3d 48 b3 d5 bc 8d 0e 50 bc fe 51 41 3d
       0.042752914 -0.026086465 -0.012698782 0.047197334
0002a0 bc 64 26 bd 0c 83 40 bb af ff 4d bc 23 32 d5 bc
       -0.04062341 -0.0029374985 -0.012573167 -0.026024884
0002b0 7a 12 01 3d f9 b4 b3 bc 80 44 c3 bc 80 25 05 3d
       0.03151176 -0.02193688 -0.023836374 0.032506466
0002c0 5e ca 28 3d 44 ff 3d bc 46 44 34 3c 9f 5c 08 bd
       0.041208617 -0.011596505 0.011002606 -0.033291455
0002d0 d7 b0 02 bc 10 00 26 3d 77 fa 17 3c 85 cc c1 3c
       -0.007976732 0.040527403 0.009276024 0.023657093
0002e0 41 31 d9 bc b2 bb f5 3c fa 75 02 bd 9f 04 3d 3d
       -0.026512744 0.029996727 -0.031850792 0.046146985
0002f0 1b f6 fd 3b 82 fd ab 3b 8c 14 33 3b 2a de c2 3c
       0.0077502853 0.0052487263 0.002732548 0.023787577
000300 0b 32 12 3c e3 73 9d 3c 7d ed 3c 3c 58 02 e1 3c
       0.008923064 0.019220298 0.011531231 0.027466938
000310 7d 01 a6 3c 8e 0a b7 bc ca 92 4c 3c 5e c3 db 3c
       0.020264382 -0.0223439 0.012486169 0.026826557

running_mean f4 [200]
000000 c3 99 09 3e f4 30 3b 3e 34 66 bb 3d 49 60 b8 3d
       0.13437562 0.18280393 0.09150353 0.0900274
000010 e5 89 f5 3d e9 b7 3a 3e c7 4f af 3d f5 44 a6 3d
       0.11989192 0.18234219 0.08560138 0.08118621
000020 96 3b db 3d 77 50 14 3e 26 33 b4 3d d2 98 02 3e
       0.107047245 0.1448382 0.08798818 0.12753609
000030 af 43 ed 3d 4c c5 e9 3d c7 d2 d1 3d e3 a3 d3 3d
       0.11585175 0.114145845 0.10245281 0.10333993
000040 c8 cd b5 3d a7 1c 2c 3d 4b fd f6 3d 98 3e 11 3e
       0.0887714 0.042019513 0.120600305 0.14184034
000050 57 0c af 3d a8 fe 8e 3d 55 3f 03 3e 1b 04 37 3e
       0.085472755 0.069821656 0.12817128 0.1787266
000060 e4 d3 f9 3d b2 2f fb 3d bd ea a1 3d b5 a8 20 3e
       0.12198618 0.122649565 0.07906101 0.15689357
000070 dc 9b bf 3d 75 69 ce 3d de 43 b6 3d 9e 69 a0 3d
       0.093559 0.10078708 0.088996634 0.07832645
000080 50 0e ab 3d cc 4f d1 3d f6 ee da 3d 9a fc 05 3e
       0.08352339 0.10220298 0.106901094 0.13084641
000090 46 9a 08 3d fe b2 13 3e 34 51 f2 3d 21 20 d7 3d
       0.03335025 0.14423749 0.118318945 0.10504175
0000a0 c8 cf ef 3d cc eb 06 3e 5d 37 95 3d 37 cc 1e 3e
       0.11709553 0.13175887 0.0728595 0.1550759
0000b0 be e5 c6 3d cc cf 3c 3e 61 2c d9 3d 79 72 eb 3d
       0.097117886 0.18438643 0.10604168 0.11496443
0000c0 31 da d0 3d 60 88 ed 3d 2b d8 d9 3d 61 53 d9 3d
       0.10197867 0.11598277 0.10636934 0.106116064
0000d0 ed 9c 12 3e 29 fb 23 3e ce 09 9f 3d b3 d9 d3 3d
       0.14317675 0.16013779 0.07765542 0.10344257
0000e0 da 1b d2 3d 1a a4 e3 3d a9 1a 0d 3e d3 e4 0c 3e
       0.102592185 0.11115284 0.13779701 0.13759165
0000f0 5f 12 f0 3d 66 d7 d3 3d c4 32 0e 3e cd c3 f8 3d
       0.11722254 0.10343818 0.13886553 0.12146721
000100 e1 9e e6 3d d2 66 e0 3d f3 ac 3c 3e 99 c0 c7 3d
       0.112607725 0.109571114 0.1842535 0.09753532
000110 7a 00 15 3e 22 18 e8 3d 76 e6 e5 3d 1a 42 24 3e
       0.14550963 0.11332728 0.112255976 0.1604084
000120 bf 55 e4 3d ef 6f 08 3e d4 0b c6 3d 84 d7 94 3d
       0.11149167 0.1332395 0.09670225 0.07267669
000130 d9 42 2c 3e ff 93 1e 3e f3 ff 05 3d 26 99 d3 3d
       0.16822375 0.15486144 0.032714795 0.10331945
000140 10 5a ab 3d 41 2e a5 3d 0f e9 d1 3d a5 0e b1 3d
       0.083667874 0.08065463 0.102495305 0.08645371
000150 ab b2 7c 3d 6a 83 66 3d 2e db 45 3d ba 6d d7 3d
       0.06169383 0.05627767 0.04830473 0.105189756
000160 60 19 f0 3d 0a 48 81 3d 5d e4 3c 3d 63 c3 ed 3d
       0.1172359 0.063125685 0.04611622 0.11609533
000170 e3 93 17 3e 2e 2b 47 3d 01 d5 cd 3d c8 7c c6 3d
       0.14802508 0.048625164 0.10050393 0.09691769
000180 5d 64 a7 3d fe 9d d7 3d 9e 18 de 3d 83 11 cd 3d
       0.0817344 0.105281815 0.10844539 0.10013106
000190 cd 86 e7 3d 42 e0 d8 3d 9d ec ef 3d 8c 5e 0c 3d
       0.11305008 0.10589649 0.11715052 0.034269854
0001a0 74 6d cb 3d 25 1d 37 3e 49 14 cb 3d 1d c7 47 3d
       0.09932986 0.17882212 0.099159785 0.048773874
0001b0 77 ca db 3d 18 a3 5e 3d 43 23 84 3d 41 30 b9 3d
       0.107319765 0.054354757 0.06452038 0.09042407
0001c0 35 b2 25 3d 8d de 7f 3d ce dd e9 3d 38 7b 95 3d
       0.040453155 0.0624681 0.11419259 0.07298893
0001d0 de df 2f 3e 81 0b 67 3d 31 5d f7 3d 34 76 8f 3d
       0.17175242 0.056407455 0.12078322 0.07004967
0001e0 3c 73 ba 3d 55 29 f3 3d 98 52 8b 3d 68 1b 0e 3e
       0.091040105 0.11873118 0.06802863 0.13877642
0001f0 be 17 bc 3d 58 f9 27 3e 26 3a a8 3d 60 27 e6 3d
       0.09184216 0.16403711 0.08214216 0.11237979
000200 1b 27 be 3d fe 75 c7 3d c0 70 b4 3d ae a2 1d 3e
       0.092848025 0.09739302 0.08810568 0.15394089
000210 26 bd af 3d 9a 38 55 3d 0f bf a4 3d 60 3a 22 3e
       0.08580999 0.052055933 0.08044254 0.15842581
000220 ce ef cb 3d 59 94 03 3e d5 35 b3 3d d6 33 dc 3d
       0.099578485 0.12849559 0.08750502 0.107520744
000230 9e 74 f5 3d 05 e7 df 3d 16 fe 44 3e f2 78 88 3d
       0.119851336 0.10932735 0.19237551 0.066636935
000240 11 cc 53 3d a2 53 4f 3d e4 70 55 3d 87 5c 19 3e
       0.051708285 0.050616868 0.052109614 0.14976703
000250 54 e0 34 3e 17 b0 26 3e 1d 74 04 3e 0e e4 00 3e
       0.176637 0.1627811 0.12934919 0.12586996
000260 a1 3b 17 3e c1 04 78 3d 61 16 ed 3d fd b3 de 3d
       0.1476884 0.06055141 0.11576534 0.10874174
000270 1c ed c5 3d 16 26 f2 3d b8 81 e8 3d 45 14 ea 3d
       0.09664366 0.118236706 0.11352867 0.11429647
000280 a6 ef aa 3d 92 db e5 3d 37 fb b0 3d c4 fa 0b 3e
       0.083464906 0.1122352 0.086416654 0.13669878
000290 b2 67 f4 3d b5 e8 04 3e ea da 31 3d 3c 1a ae 3d
       0.11933841 0.12979396 0.043421663 0.085010976
0002a0 29 5b ed 3d 36 06 ea 3c ce 69 e5 3d 2a 53 c2 3d
       0.11589653 0.028567415 0.11201821 0.094885185
0002b0 23 de 14 3e 8e e4 d7 3d b9 51 2c 3e 91 e7 94 3d
       0.14537863 0.1054164 0.1682805 0.0727073
0002c0 c8 e7 48 3d 3c 74 05 3e 8e 5f 98 3d ed af 0e 3e
       0.04904917 0.13032621 0.074401006 0.13934298
0002d0 04 67 a0 3d 8b 67 de 3d 03 b2 a3 3d b6 b3 93 3d
       0.07832149 0.10859593 0.079929374 0.072120115
0002e0 f7 93 db 3d 30 e4 12 3e d2 b6 15 3d a0 25 d7 3d
       0.107215814 0.14344859 0.036551304 0.10505223
0002f0 2c d2 97 3d e7 a7 7c 3d ee ff f0 3d 02 57 0e 3e
       0.07413134 0.06168356 0.11767565 0.13900378
000300 ee 3b 06 3e a6 90 fc 3d f8 de 0a 3e 7d bb ad 3d
       0.13108799 0.12332277 0.13561618 0.08483026
000310 52 09 8f 3d 8f ed b5 3d ce 0e d7 3d 21 a2 88 3d
       0.069841996 0.08883201 0.10500871 0.06671549

running_var f4 [200]
000000 13 93 bd 3d 66 ad e9 3d 94 09 8d 3d 0c d4 97 3d
       0.09256568 0.11410026 0.068865925 0.074134916
000010 b4 d6 90 3d af 3b ea 3d a4 c9 63 3d f3 b6 7e 3d
       0.07072201 0.11437165 0.05561222 0.062186193
000020 32 0d 84 3d ef 59 9e 3d a2 27 6c 3d 13 cf a1 3d
       0.06447829 0.07731997 0.057654984 0.079008244
000030 af 90 8e 3d 87 af 8e 3d 33 a3 86 3d 0a 8a 85 3d
       0.0696119 0.06967073 0.065740965 0.065204695
000040 e1 ff 6f 3d e7 fb 3b 3d 79 e2 8f 3d 25 47 99 3d
       0.058593635 0.04589453 0.07025618 0.07484273
000050 c0 75 6a 3d 3a 46 66 3d a8 df 95 3d c7 0a df 3d
       0.0572412 0.056219317 0.0731805 0.108907275
000060 f5 0c a2 3d f7 cf a1 3d a5 e0 5d 3d f0 d7 b5 3d
       0.079126276 0.07900994 0.054169316 0.088790774
000070 0a af 82 3d ec cb 9b 3d df ad 72 3d 33 ad 62 3d
       0.06381042 0.076072544 0.059247848 0.055340957
000080 35 d1 6c 3d c0 68 7b 3d ad 97 91 3d 5a 04 b6 3d
       0.057816703 0.061379194 0.07109008 0.08887549
000090 bd c5 36 3d 04 05 b3 3d 8b 18 86 3d 7d 9c 82 3d
       0.04462217 0.08741191 0.0654765 0.06377504
0000a0 a4 68 90 3d 6e e7 b5 3d d8 7c 5d 3d 8c be bc 3d
       0.070512086 0.08882032 0.05407414 0.092160314
0000b0 aa f5 85 3d c0 fe d5 3d 81 46 85 3d 38 c3 a5 3d
       0.06540997 0.1044898 0.06507588 0.08093876
0000c0 74 a0 85 3d a3 36 93 3d 91 7c 80 3d 4e 63 79 3d
       0.06524745 0.071881555 0.06273759 0.06088572
0000d0 1f 3b b1 3d 8e 9f e5 3d e9 4c 62 3d ed a7 85 3d
       0.086538546 0.11212073 0.05524913 0.0652617
0000e0 2a 95 9a 3d 3b 5a 8b 3d b8 c5 94 3d b3 5b b7 3d
       0.07547982 0.068043195 0.07264274 0.08953037
0000f0 1d 6e 80 3d 75 9c 88 3d b3 e1 bd 3d b5 fb 88 3d
       0.062710024 0.06670467 0.09271564 0.06688634
000100 49 21 91 3d 99 7b 82 3d 0c dd f0 3d b9 88 8f 3d
       0.07086427 0.06371231 0.11760911 0.070085
000110 0a a7 b1 3d 84 66 9a 3d d2 90 92 3d d4 c0 c7 3d
       0.08674438 0.075390846 0.071565285 0.09753576
000120 35 2c 92 3d 9b 3c a5 3d 8d e0 69 3d d2 f5 5a 3d
       0.07137338 0.080682 0.057098914 0.05345709
000130 74 83 b6 3d 51 15 a9 3d b8 42 36 3d a7 e0 6f 3d
       0.089117914 0.08256019 0.04449722 0.058563855
000140 30 31 6c 3d c0 2b 68 3d 1e d9 87 3d 85 98 70 3d
       0.057664096 0.05668235 0.06633209 0.058739204
000150 43 ed 4b 3d 36 23 48 3d 39 da 42 3d 73 7f 80 3d
       0.049786817 0.048861705 0.047571395 0.06274309
000160 33 9c 94 3d e7 ac 4d 3d 58 78 47 3d bd b4 8d 3d
       0.07256355 0.05021372 0.048698753 0.06919239
000170 52 d3 bc 3d 17 6f 3e 3d 53 32 94 3d 49 9a 7f 3d
       0.09219994 0.046492662 0.07236161 0.062402997
000180 cd 3d 68 3d c6 0b 77 3d 0a 96 84 3d 2d 3b 83 3d
       0.056699563 0.060313962 0.0647393 0.06407771
000190 ee f1 91 3d 16 03 85 3d 3a 23 94 3d 0c 33 3b 3d
       0.071262226 0.06494729 0.072332814 0.04570298
0001a0 2c 94 83 3d a4 46 d5 3d 9a d5 83 3d d5 df 44 3d
       0.06424746 0.10413864 0.06437226 0.048065025
0001b0 93 da 79 3d b9 b9 53 3d 2a fa 53 3d c7 bf 6a 3d
       0.060999464 0.05169079 0.051752247 0.0573118
0001c0 7f 0a 45 3d 12 58 4f 3d 66 16 89 3d b3 6a 7d 3d
       0.048105713 0.0506211 0.06693725 0.061869334
0001d0 d4 25 da 3d dc 44 4a 3d d5 42 96 3d 4d df 5b 3d
       0.106517464 0.049382076 0.07336966 0.053679753
0001e0 b7 2b 7d 3d e2 18 9d 3d 73 f5 52 3d 1d 62 b9 3d
       0.061809268 0.07670762 0.05150361 0.09051917
0001f0 12 df 5e 3d 63 ed c7 3d 60 fe 68 3d c5 c1 86 3d
       0.054411955 0.09762075 0.056883216 0.06579927
000200 d3 42 7f 3d 2f b4 98 3d f9 b0 68 3d 45 2c a9 3d
       0.062319588 0.07456242 0.0568094 0.08260397
000210 c7 b7 76 3d 3f 93 49 3d 70 25 69 3d e0 f8 b0 3d
       0.060233857 0.04921269 0.05692047 0.08641219
000220 64 b4 84 3d be 0f 9a 3d 4f f0 77 3d f4 84 70 3d
       0.06479719 0.07522534 0.06053191 0.058720544
000230 6a 07 91 3d aa cf 8b 3d 02 c0 e5 3d 15 22 78 3d
       0.07081492 0.06826718 0.11218263 0.06057938
000240 92 18 43 3d 34 29 40 3d 3f ca 42 3d 4d 86 b6 3d
       0.047630854 0.046914294 0.04755616 0.089123346
000250 06 3e db 3d da d3 d2 3d c4 72 a2 3d 68 3e a4 3d
       0.107051894 0.10294314 0.07932046 0.080197155
000260 38 c9 af 3d f5 12 58 3d fc ac 90 3d 82 5d 9c 3d
       0.08583301 0.052752454 0.07064244 0.07635023
000270 60 5d 87 3d 3d 95 90 3d b7 a5 90 3d 2c 04 78 3d
       0.06609607 0.07059715 0.070628576 0.060550854
000280 0a bd 71 3d 00 75 87 3d f0 f6 68 3d a4 a2 a6 3d
       0.059018172 0.06614113 0.056876123 0.0813649
000290 d2 ea 98 3d da 5c 97 3d 95 39 3d 3d d2 12 68 3d
       0.074666634 0.07390757 0.046197493 0.056658573
0002a0 41 01 95 3d 4b f9 35 3d 80 cc 86 3d 1d 62 71 3d
       0.0727563 0.044427197 0.06581974 0.05893146
0002b0 af 73 a3 3d b8 8f 87 3d bb 6b de 3d 42 8e 6d 3d
       0.07981049 0.06619209 0.10860392 0.057996996
0002c0 5e 7c 48 3d 65 5b a1 3d 2a c2 53 3d 27 d5 af 3d
       0.04894673 0.0787876 0.05169884 0.085855775
0002d0 95 c9 59 3d 37 fa 87 3d 84 2e 65 3d 2c 73 6f 3d
       0.05317076 0.066395216 0.055952564 0.058459446
0002e0 f1 ae 72 3d a5 3e b8 3d 4c 13 3b 3d 15 ec 88 3d
       0.05924887 0.089963235 0.0456727 0.06685654
0002f0 19 88 5d 3d 33 a1 5d 3d 80 aa 9b 3d 92 b9 ae 3d
       0.05408487 0.05410881 0.0760088 0.085314885
000300 86 f2 b6 3d e1 a4 93 3d 25 90 b1 3d a9 58 62 3d
       0.089329764 0.072091825 0.086700715 0.055260334
000310 23 91 55 3d 76 a7 75 3d 89 05 6b 3d 9d 99 52 3d
       0.052140366 0.059974156 0.057378326 0.05141603

weight f4 [100, 200]
000000 6e f2 9a b9 db db 40 bc 7f a5 d9 bc 74 d9 d9 bc
       -0.00029553793 -0.011771168 -0.026568172 -0.026592948
000010 ca 89 ee 3c 50 ee 9f 3d d0 c1 f9 3c 92 84 c0 bc
       0.029118437 0.078091264 0.030487925 -0.023500714
000020 5e 48 d0 bc 6b cf f9 bb b3 ff d5 3c 08 5c e3 bc
       -0.025425132 -0.007623603 0.026122903 -0.027753845
000030 e7 83 1e 3c 5a 2a 6b bd 2a 64 2b bd 3d 55 8f 3b
       0.009675003 -0.057413436 -0.04184357 0.004374175
000040 ba 7b c4 3c 71 b0 2a bc fa cf bb bd 2b 7c 2f 3d
       0.023984779 -0.0104180435 -0.09170528 0.042843025
000050 3d fb 1e 3c bd bb a6 bd f8 df 5f bd 0d 3d 19 3d
       0.009703455 -0.08141277 -0.054656953 0.03741174
000060 28 a1 94 bd 1e 37 5f 3a b6 e6 d5 bc 66 7c 3d 3c
       -0.072573006 0.0008514988 -0.026110988 0.011565303
000070 84 5f 6d 3b 6d f0 70 bd 15 0b 11 3d 64 19 0a 3d
       0.0036220262 -0.058823038 0.03541096 0.03371562
000080 e2 4a 8b 3b a8 ae 04 3c 19 f0 67 bb e4 f5 0d 3c
       0.00425087 0.008098282 -0.0035390912 0.008664582
000090 09 bd ef 3c 8f 4a 18 bd 64 78 de 3c 59 2a d5 bd
       0.029264944 -0.03718048 0.027157016 -0.10408468
0000a0 84 15 35 bc 19 40 2f bd 12 4d 46 bd f2 b2 70 bc
       -0.011052493 -0.042785738 -0.048413344 -0.014691101
0000b0 b0 74 ca bd f7 d6 cc bc b7 ae ff bb 68 a9 5f bd
       -0.098855376 -0.025004847 -0.00780281 -0.054604918
0000c0 6e 9b 77 3b 06 d8 2e bc fd ae f8 3b ae 70 94 bd
       0.0037781852 -0.010671621 0.0075892196 -0.072480544
0000d0 07 11 a3 bc 03 d2 07 3d a3 05 7d 3c 2e d6 36 3c
       -0.01990558 0.033159267 0.015443238 0.011159463
0000e0 66 22 45 bc a6 85 7a 3d b7 c2 09 bd 4d 44 64 3d
       -0.012032127 0.061162613 -0.03363296 0.0557292
0000f0 36 2e 46 3d 6f e0 89 bd 59 f8 b0 3c d2 8f 8e 3c
       0.048383914 -0.067322604 0.021602796 0.017402563
000100 2e f6 b0 bc 20 d2 e1 3c 2e 76 44 3c 2f 45 2e 3d
       -0.021601763 0.027566016 0.011991067 0.042546447
000110 ef 93 02 3c 9c 44 89 bd 96 8c 45 3d 2e 30 10 3d
       0.00796984 -0.06702539 0.048229776 0.035202198
000120 be 69 97 3d 8a 08 19 3d 4b 93 87 3c 1e 5e 5b 3d
       0.073932156 0.03736166 0.016549727 0.053556554
000130 39 19 08 3b da b5 03 bd 1c 8d 05 3d aa 56 5d bd
       0.0020766987 -0.03215585 0.032605276 -0.054037727
000140 f8 7e 63 3c 25 0b bb bc c7 8a d0 3b 1b 65 9d bd
       0.013885252 -0.022832463 0.0063642 -0.076853
000150 44 17 d0 3c b7 87 ae bd 1f bb f6 3c 01 3c 76 3c
       0.025401719 -0.08521979 0.030118523 0.0150289545
000160 d7 2d 86 bd 6d d0 5e 3d a1 3a b4 bd 9d 63 43 3c
       -0.06551712 0.05439799 -0.08800245 0.011925605
000170 c3 25 5c 3d a2 53 23 bd 5d 61 73 3d 69 2f 9d bc
       0.05374695 -0.03987468 0.059419025 -0.019187646
000180 34 c7 fa 3b 95 0a 4d bd eb e5 4b bd 99 0b a3 3d
       0.0076531414 -0.05005892 -0.049779814 0.079611965
000190 a5 d0 35 3d 3d 1e f4 3c b4 ec 52 3c d4 05 54 bd
       0.044388432 0.029799575 0.012873817 -0.05176337
0001a0 3f c7 52 3d 75 d3 ce bc 7d 4e 0d bd 87 fe 91 bd
       0.051459547 -0.025247315 -0.03449868 -0.07128625
0001b0 b0 55 44 3d 14 88 f1 3c 89 aa 0d 3d 38 25 8b bc
       0.04793328 0.029483832 0.034586463 -0.01698552
0001c0 f1 82 b8 bd c1 fe b1 3c 7d 2f ae bb fa 43 a4 bb
       -0.0900935 0.021727921 -0.0053157196 -0.0050129863
0001d0 37 12 67 bd 1f 80 e8 bc 37 b9 84 3d 59 a2 14 3d
       -0.056413855 -0.028381405 0.064806394 0.03628764
0001e0 1c e1 d8 bc 87 56 01 3c 36 35 93 bc c1 a8 f7 bb
       -0.026474528 0.007894165 -0.017969709 -0.007557959
0001f0 78 40 b6 3c 48 66 ad bd 4f 4a a2 3d 27 95 f2 3c
       0.022247538 -0.08466774 0.079243295 0.029612137
000200 e0 e9 8e 3c f3 cf ec bc 18 93 38 3c da 6a 63 bd
       0.017445505 -0.028907752 0.011265539 -0.055521823
000210 be 99 4b 3d 61 4a 85 bd 2d 8d 15 bc e7 1d a7 bd
       0.049707167 -0.06508327 -0.009127897 -0.0816
000220 ab 52 21 3d 10 db 1c 3d fe e6 5b 3d 39 75 96 bb
       0.03938548 0.03829485 0.05368709 -0.0045916107
000230 53 ad 75 3d b3 f2 e1 3c 07 75 25 3d 71 fa 5a bb
       0.059979748 0.027581548 0.04039481 -0.0033413435
000240 dc 4e 48 bd 36 3a a9 bc 10 88 1a bd 4a 56 3e bc
       -0.04890333 -0.02065764 -0.037727416 -0.011617253
000250 25 b4 89 3d db b2 90 3c 7e 55 a3 3c 27 95 29 3d
       0.06723813 0.01766341 0.019938227 0.04140201
000260 89 0e 93 3d ed a5 d7 3c c0 67 df bc da b8 b6 bd
       0.07180507 0.026324237 -0.027271152 -0.089219764
000270 8d b3 a7 bd f8 04 7c 3c 9e 3d 94 3a 9a b3 52 bd
       -0.081885435 0.015382044 0.0011309867 -0.051440813
000280 5f 35 b0 3c b9 f7 f7 3c 14 3e 32 3c d8 ad 5e bd
       0.021509824 0.03026949 0.010879058 -0.05436501
000290 e9 29 02 bd 84 05 8b bd 2c ef 86 3d 5a 97 96 bd
       -0.03177825 -0.067881614 0.06588587 -0.07353087
0002a0 08 78 97 3d ec f2 4f bd 12 0f 43 bd c9 d6 a1 bd
       0.07395941 -0.050768778 -0.047621794 -0.07902295
0002b0 e4 68 99 bc 12 c2 1d bd d2 6b 06 bc 2c 1b 40 3c
       -0.018726774 -0.038515158 -0.008204417 0.011725228
0002c0 03 4b db 3c ba d1 75 bd 82 26 04 ba fd 91 5c 3c
       0.026769167 -0.060014464 -0.00050411385 0.013462541
0002d0 ac a4 94 3d 0c f7 02 bd fd a2 52 3d 56 c2 09 bc
       0.07257971 -0.031973884 0.05142497 -0.00840815
0002e0 78 51 06 bd 08 67 7d 3d 0e dc 94 bd 52 b7 55 3d
       -0.03279254 0.061865836 -0.072685346 0.05217678
0002f0 49 85 99 3d 1b 88 09 bd 3a 13 28 3d 6f 4d 46 3d
       0.07496125 -0.033577066 0.04103396 0.04841369
000300 fa 38 01 3d c0 3f 12 3c 94 3a d8 3c 4d b5 a7 bc
       0.031548478 0.008926332 0.02639512 -0.020472193
000310 92 63 17 3d 94 c8 2e bd 4e f6 48 3d de 5f 56 bd
       0.036960192 -0.042671755 0.04906302 -0.05233752
000320 96 30 70 bb 08 6d a7 39 16 f1 4c 3b 7c 94 b1 bc
       -0.0036650053 0.00031933957 0.0031271628 -0.021677248
000330 59 98 30 3d 8d 1a 06 3c b0 77 d9 bc 06 4c f7 3c
       0.04311404 0.008185041 -0.02654633 0.030187618
000340 9f cb 1d bd 8c 40 82 bd 87 e8 e7 3c 09 18 7b bc
       -0.038524266 -0.063599676 0.02830912 -0.015325555
000350 6e 80 f2 bc 03 7c b1 bc 9f c9 49 3c fd 89 4a bc
       -0.029602256 -0.021665579 0.012316137 -0.0123620005
000360 cd fb 02 bd 7d de df bc d7 8c a8 3c 58 f6 17 3c
       -0.031978417 -0.02732777 0.02057497 0.0092750415
000370 9c 2d bc bc 61 5f 73 bd 09 05 6d bc 0d d5 3b 3d
       -0.022970967 -0.059417132 -0.0144665325 0.045857478
000380 9d 70 07 bb 41 aa 45 3d 4d 69 61 3d 05 62 cf 3c
       -0.0020666488 0.04825807 0.055032063 0.025315294
000390 02 be a2 3c 22 18 95 3c 34 80 31 bd 0a 62 b3 bc
       0.019865993 0.018199984 -0.043335155 -0.021897335
0003a0 89 a7 a0 3d 43 4e 2e bd 90 36 ce 3c 28 73 f1 bc
       0.07844455 -0.042555105 0.025172502 -0.029473856
0003b0 29 2d 9b bd 30 3b 2d 3d a5 53 36 3d 4f 54 9d bd
       -0.07576973 0.042292774 0.044513363 -0.07682096
0003c0 b6 6c 39 3d ee 72 61 3c cc 75 11 3d 8e 2f fd 3c
       0.04526969 0.0137603115 0.03551273 0.030906465
0003d0 23 e6 86 3d 7c e5 43 3d fd 12 ab bd 06 4e 81 bd
       0.06586864 0.047826275 -0.08353231 -0.0631371
0003e0 fe d1 28 3d 1c f9 3b bd 56 5c 60 3c de 31 3f bd
       0.04121589 -0.045891866 0.01369389 -0.046678416
0003f0 d7 f9 99 3c 2c e5 1e 3d 4c 21 00 3d 93 59 4b 3d
       0.01879589 0.038792774 0.031281754 0.04964597

weight f4 [100]
000000 d8 5e 78 3f 44 18 7b 3f 33 45 7c 3f 90 e0 79 3f
       0.9701972 0.980839 0.9854309 0.9760828
000010 c3 a8 7b 3f 88 43 7a 3f 05 ac 79 3f 8c 98 78 3f
       0.98304385 0.97759295 0.97528106 0.9710777
000020 be b6 7d 3f 70 60 80 3f 61 aa 81 3f ec f6 7d 3f
       0.9910697 1.002943 1.013012 0.992049
000030 98 53 75 3f f2 72 7a 3f e0 16 7b 3f 8c 6b 7b 3f
       0.9583068 0.9783164 0.9808178 0.9821098
000040 10 f8 79 3f b3 28 77 3f ac 20 7d 3f e8 b2 7e 3f
       0.9764414 0.9654648 0.9887798 0.9949174
000050 b9 45 77 3f 21 a8 7d 3f 98 90 7b 3f 03 0e 79 3f
       0.96590763 0.9908467 0.9826751 0.97287005
000060 86 f5 77 3f 05 2e 73 3f 38 25 7e 3f dc f8 79 3f
       0.96859014 0.94992095 0.9927554 0.97645354
000070 ee bc 78 3f 0c d1 78 3f 94 1f 7b 3f e0 18 7b 3f
       0.97163284 0.9719398 0.9809506 0.9808483
000080 7d 1f 7e 3f 9e b6 77 3f ff 29 76 3f 6b ce 75 3f
       0.992668 0.96763027 0.9615783 0.96018094
000090 38 15 80 3f c0 46 7f 3f 02 7c 7e 3f 8f 8f 78 3f
       1.0006475 0.9971733 0.9940797 0.97094053
0000a0 e6 53 7b 3f af 34 7a 3f fc b9 78 3f 26 65 7c 3f
       0.98174894 0.9773664 0.9715879 0.9859184
0000b0 c1 18 7c 3f 70 99 79 3f 3c c0 7d 3f bd c9 79 3f
       0.9847527 0.9749975 0.9912145 0.97573453
0000c0 ab 49 79 3f ed da 78 3f 4e 00 7d 3f ec b5 7d 3f
       0.97378033 0.97209054 0.9882859 0.99105716
0000d0 79 0e 79 3f 23 a5 77 3f f5 5c 7f 3f e6 88 77 3f
       0.9728771 0.96736354 0.99751216 0.96693265
0000e0 a4 a0 74 3f c1 0b 81 3f 50 9a 76 3f cd 4f 78 3f
       0.9555762 1.0081712 0.9632921 0.96996766
0000f0 10 0a 7b 3f 67 92 78 3f 49 f0 78 3f 32 19 78 3f
       0.9806223 0.9709839 0.97241646 0.96913445
000100 ec 0c 77 3f 16 e5 77 3f ed 04 7b 3f 3c b0 7c 3f
       0.9650409 0.9683393 0.9805439 0.9870641
000110 e6 3f 7d 3f b1 d6 79 3f b7 ae 7d 3f 8d 58 76 3f
       0.98925626 0.9759322 0.9909472 0.9622887
000120 60 38 7a 3f 40 77 7b 3f 85 c8 7e 3f e1 35 79 3f
       0.9774227 0.98228836 0.9952472 0.9734784
000130 00 eb 7c 3f 7e cf 7b 3f c5 38 7d 3f bd 19 7c 3f
       0.9879608 0.9836348 0.9891475 0.98476774
000140 ce 9d 70 3f a5 a0 77 3f 40 30 7b 3f 2b 5e 7b 3f
       0.9399079 0.967295 0.981205 0.98190564
000150 06 fd 7a 3f bd 90 78 3f f5 c6 7e 3f a9 af 7b 3f
       0.98042333 0.97095853 0.99522334 0.9831491
000160 a6 86 76 3f 91 81 7d 3f 72 8d 6f 3f 47 28 7a 3f
       0.9629921 0.9902583 0.93575203 0.9771771
000170 9a c0 76 3f 69 6f 7c 3f d2 ae 7f 3f 55 84 79 3f
       0.96387637 0.986075 0.9987613 0.9746755
000180 d8 c7 7f 3f c2 e2 7d 3f cb 13 7b 3f 5f 6b 7a 3f
       0.9991431 0.9917413 0.98077077 0.97820085

bias f4 [100]
000000 14 c3 18 bd 9b da 11 3d a0 d2 45 3d ea 86 41 3d
       -0.037295416 0.03560887 0.04829657 0.047247805
000010 2a d2 4f 3d 55 ef 0e bd 50 cb 35 bd 3c f3 2a 3d
       0.050737537 -0.034896214 -0.044383347 0.041735873
000020 ce c1 02 bd 6c f7 1b bd 14 c4 49 bc 44 a3 05 3d
       -0.031923108 -0.038077757 -0.012314815 0.032626405
000030 1a 06 03 3b a6 8b 2f 3d 3b 56 32 bd dd d2 20 bd
       0.001999265 0.04285779 -0.043539267 -0.039263595
000040 1f f4 5a 3d d3 66 46 3d 4b 04 1c 3d 29 cd df bc
       0.05345547 0.048437905 0.03809003 -0.027319508
000050 25 62 5e bd 23 b5 1c 3d 7f e7 16 bd ca 35 53 3d
       -0.054292817 0.038258683 -0.036841866 0.05156497
000060 ae 65 1f 3d e6 31 8c bc 22 d8 1c bd cd c7 24 bd
       0.03891533 -0.017113637 -0.038292058 -0.040229607
000070 36 90 4a bd da 3a 2b bd 7d 22 3f bd b3 a8 24 bd
       -0.049453937 -0.041804172 -0.04666375 -0.040199947
000080 bb 1d 25 bd 42 be 8f bd c4 b4 1d bd e9 bb 1a 3d
       -0.040311556 -0.07018711 -0.03850247 0.03777686
000090 f4 4f 2b bd 71 29 db 3c 8c 4f 39 bd 1b 6a 70 3d
       -0.041824296 0.02675316 -0.045241877 0.05869494
0000a0 e9 da 12 bd 6b 07 49 3d c8 2b 26 bd a8 77 27 bd
       -0.0358533 0.04907934 -0.040569097 -0.040885597
0000b0 16 7b 48 3d bb f4 84 bd a8 bd 44 3d 4d f9 b8 bc
       0.04894551 -0.06491991 0.048032433 -0.022579813
0000c0 65 2f 49 3d c4 17 44 bd e2 c5 05 3d 1d 4b 1e 3d
       0.049117465 -0.047874227 0.03265942 0.038645852
0000d0 12 c8 25 3d 68 4c 5f 3d e6 00 34 bd 80 c3 4c 3d
       0.040474005 0.054516226 -0.04394617 0.04999113
0000e0 d2 52 65 3d 10 7d 17 bd 97 18 6a bd 6e 31 3a 3d
       0.055987187 -0.036984503 -0.057152357 0.045457296
0000f0 da b8 15 bd 56 8e 43 3d b4 93 58 3d a8 7a 5c bd
       -0.03655324 0.047743164 0.052875236 -0.05382791
000100 b5 1d e1 bc e1 13 4a 3d 59 81 56 3d 87 52 22 bd
       -0.027479986 0.049335364 0.05236945 -0.039629485
000110 d4 a5 41 3d 49 ce 27 bd 04 3c 3a bd f5 e2 46 bd
       0.047277287 -0.040968213 -0.04546739 -0.048556287
000120 c8 84 38 bd 3a a7 5a 3d 44 0b 1f bd 9b d7 5d bd
       -0.045048505 0.053382136 -0.038829103 -0.054160696
000130 5e 0b 0c bd f0 92 1b bd 64 8e 4a bd a4 ea 37 3d
       -0.034190528 -0.037981927 -0.0494522 0.044901505
000140 e5 28 44 3c 61 ce 05 bd 37 bb fe bc c9 82 21 bd
       0.011972641 -0.03266752 -0.03109513 -0.039431367
000150 6d ad 21 3d e6 c9 92 bd 60 50 e7 bc 84 14 3f 3d
       0.039472032 -0.07167415 -0.028236568 0.046650425
000160 81 fb 34 bd c6 bd 39 3d f5 12 8d bb 14 e2 35 3d
       -0.044185165 0.045346998 -0.0043052384 0.044405058
000170 6c d2 35 bd 92 8c 3e 3d c2 e6 15 bd dc 1d 6d 3d
       -0.044390127 0.046520777 -0.03659702 0.057889804
000180 06 62 e9 bc b9 11 0e bd 4d 5a 58 3d 33 43 3e bd
       -0.028489124 -0.03468487 0.052820493 -0.046450805

running_mean f4 [100]
000000 7a 22 0b 3f 15 08 d8 3e 3f 30 dd 3e 81 49 b6 3e
       0.5434948 0.42193666 0.4320087 0.35602954
000010 9f a9 02 3f c5 93 de 3e 4a fc 31 3f 5c a7 2c 3f
       0.5104007 0.43472114 0.6952559 0.6744287
000020 62 e8 fb 3e 60 87 c1 3e d4 cc 44 3f bb 46 f9 3e
       0.49200732 0.37798595 0.7687504 0.48686776
000030 ab e9 f9 3e 8e 3b e8 3e 5d 9e a8 3e 25 8c dc 3e
       0.48811087 0.45357937 0.32933322 0.43075672
000040 bb 2b 5f 3f 74 80 c9 3e 26 79 ce 3e 04 72 ea 3e
       0.871761 0.39355814 0.40326804 0.45790112
000050 a9 4e ea 3e dd 44 2d 3f 8a 16 dc 3e 7b ad 3a 3f
       0.45763138 0.676832 0.42985946 0.7292096
000060 8a e0 59 3f 0a f1 03 3f c1 a5 04 3f 8e 95 14 3f
       0.85108244 0.5153967 0.5181542 0.580407
000070 c2 3a ef 3e 81 e1 01 3f cb 96 02 3f f6 82 cc 3e
       0.46724516 0.50734717 0.5101134 0.39943665
000080 18 c4 20 3f 85 68 0e 3f 30 59 b1 3e 8c 70 50 3f
       0.62799215 0.55628234 0.34638357 0.8142173
000090 0d 2c 23 3f 85 eb 97 3e 33 d5 00 3f 69 39 b5 3e
       0.6373909 0.29671875 0.50325316 0.35395363
0000a0 77 4d 1a 3f d2 d9 08 3f f0 60 01 3f d1 d4 2a 3f
       0.6027445 0.5345737 0.5053854 0.6673098
0000b0 1d 2e 05 3f 72 f9 b5 3e 51 6b 0a 3f 61 39 f7 3e
       0.5202349 0.35541874 0.5407 0.48285964
0000c0 30 0b c9 3e 37 7f 20 3f 78 dc f0 3e 70 31 ef 3e
       0.39266348 0.62694114 0.47043204 0.46717405
0000d0 59 1d aa 3e 2d fc cd 3e be df c6 3e 1e 6b 07 3f
       0.33225515 0.40231457 0.38842577 0.5289782
0000e0 6f 0c bd 3e eb 38 8d 3e f8 72 f8 3e fe 93 0b 3f
       0.3692355 0.27582487 0.48525214 0.54522693
0000f0 d2 1a df 3e a7 bf 1e 3f 20 f5 0e 3f 88 be ff 3e
       0.4357515 0.6201119 0.5584278 0.4995005
000100 b9 2b d4 3e 7d f3 e7 3e 90 fb 0b 3f 30 61 1d 3f
       0.41439608 0.45302954 0.5468073 0.6147642
000110 00 ac cd 3e f9 6c be 3e ea 20 ac 3e c5 95 24 3f
       0.40170288 0.37192515 0.3361886 0.6429103
000120 ed 71 f6 3e 13 be b9 3e aa 71 0b 3f 8d 2b d2 3e
       0.48133793 0.36277828 0.5447031 0.41048852
000130 04 6e c7 3e 42 6e 0b 3f 0b f2 09 3f 78 cf f1 3e
       0.38951123 0.54465115 0.53884953 0.472286
000140 16 93 09 3f 9a fa e6 3e 88 77 03 3f 66 53 c7 3e
       0.5374006 0.4511307 0.51354265 0.38930815
000150 b1 e5 a9 3e bc 18 93 3e 08 a5 04 3f 26 5d ec 3e
       0.33183053 0.28729808 0.5181432 0.46164817
000160 89 12 97 3e 89 7d f7 3e b4 af 2e 3f 6f 43 de 3e
       0.2950633 0.48337963 0.6823685 0.43410823
000170 dd 9f 02 3f 8c ff 01 3f 1a 83 db 3e 40 85 ff 3e
       0.5102518 0.5078056 0.4287346 0.4990635
000180 06 82 f7 3e 53 8a 02 3f 8c 77 02 3f 20 3f f9 3e
       0.48341388 0.50992316 0.50963664 0.48680973
